best_model.pth (torch, 564644 bytes, 8 tensors)

fc1.weight f4 [256, 384]
-0.0003820602 0.027375273 -0.04200085 -0.03755573 -0.019654827 0.013684348 -0.0010110871 0.040461972
-0.004528701 0.013503454 -0.015422246 -0.0100309355 -0.048752427 -0.033796944 -0.021036172 0.0018903719
0.020174365 0.030619785 -0.034596037 -0.02222212 0.018535346 0.04237556 -0.010502197 0.038187128
-0.008225354 0.005399803 0.04620739 -0.047339983 -0.032125976 -0.012919285 -0.019891895 0.044090856
-0.03307728 -0.023491263 -0.035652347 -0.04779368 -0.029788882 0.04386618 0.022770986 0.024733344
0.002683802 -0.026162772 0.00863367 -0.04764741 -0.036873307 -0.02630803 0.03219742 0.029920582
-0.022632012 -0.0018413217 0.032637447 0.050731644 0.02025331 0.0068939286 0.034215614 -0.030047195
0.009509329 -0.039564647 -0.035368904 -0.026361795 0.023090169 0.020522663 -0.030228363 0.015416839
0.028014611 -0.006441003 0.0019484438 0.011824132 0.03165846 0.0489997 -0.03932572 -0.018701332
0.020055704 0.042281736 0.044407584 0.04502758 0.010155919 -0.044375706 0.0046944725 -0.03192529
-0.047558587 0.045340694 0.03880195 -0.05090489 0.009551585 -0.008596689 -0.008397726 -0.02335981
0.0196243 -0.030225864 0.018707536 0.025806809 0.03653167 0.019081073 -0.050507218 -0.033103675
0.025480565 0.0106808655 -0.039808497 -0.029384667 0.048007414 0.034385625 -0.022250816 -0.0128437355
-0.04861207 -0.00091723894 -0.03842938 -0.039363135 -0.0028117902 0.007662058 -0.020898756 0.030280674
-0.031054383 0.046304036 0.034971565 -0.043033604 -0.012700825 0.0023026543 0.007445484 0.012103249
0.020026023 0.0030567676 -0.02489951 0.024147326 -0.048951466 -0.030246437 -0.012774592 -0.024857901
-0.01785236 -0.041826144 -0.010855075 0.010908213 -0.033244975 -0.0026188802 0.03653061 -0.0052460036
0.0014182656 -0.0044023916 0.010327731 0.032447547 0.048338957 0.032407563 0.048449557 -0.003690649
-0.04584228 -0.024192654 0.0347473 -0.0003308078 -0.025364792 -0.039105684 -0.047757503 -0.043070614
-0.01035097 0.027985727 0.027589476 -0.04921596 0.031832244 -0.03993227 -0.010788486 -0.02069169
-0.009829357 -0.010019572 -0.0457927 -0.04406213 -0.007985311 0.0006599426 -0.02318212 0.019223351
-0.045930915 -0.0034439438 0.044877686 -0.02081515 0.046081185 0.018481083 -0.046053518 0.032287203
-0.0058886996 -0.022780605 0.04080714 -0.04123794 0.005475882 -0.010684302 0.03644191 0.014245035
0.024520686 0.018022068 -0.012271673 -0.010732106 -0.04205373 0.027650869 0.040517528 0.034916703
-0.035996187 0.0022759787 -0.03597352 -0.028091779 -0.029736066 0.017439604 -0.030410068 -0.0011133547
0.00214678 0.032895785 -0.038575385 -0.03503343 -0.029631762 0.03571833 -0.018343871 0.043044105
0.018453209 0.006461857 -0.00037987626 -0.010087894 0.006402678 -0.011652666 -0.0003585662 0.0065112053
-0.03991674 -0.02674697 0.041207194 -0.04141407 -0.0036643445 0.05048188 0.018434301 0.0014448438
-0.044224005 0.025279649 -0.036348425 -0.014485888 -0.017121747 -0.0075570527 0.00055819214 0.042090785
0.0063706553 0.045708135 0.031216322 -0.032262534 0.022887629 -0.03607364 -0.021628236 0.015009386
0.016850045 0.038284916 -0.016427701 8.169363e-05 0.02627198 -0.04935172 0.03689445 -0.04219871
0.00070333533 -0.008676132 -0.026876668 0.0067448253 0.04219852 -0.014917369 -0.030296827 -0.01887326
00000000: 414f c8b9 1c42 e03c 1509 2cbd 0ad4 19bd
00000010: 2903 a1bc 5134 603c 7486 84ba 74bb 253d
00000020: 7f65 94bb 973d 5d3c 97ad 7cbc cb58 24bc
00000030: a0b0 47bd aa6e 0abd 0d54 acbc 5bc6 f73a
00000040: b644 a53c 58d6 fa3c 93b4 0dbd 2a0b b6bc
00000050: 70d7 973c ff91 2d3d 6811 2cbc 1b6a 1c3d
00000060: a3c3 06bc d5f0 b03b f643 3d3d 92e7 41bd
00000070: 8796 03bd 69ab 53bc 54f4 a2bc 9d98 343d
00000080: 0b7c 07bd c070 c0bc 3208 12bd 4ec3 43bd
00000090: d007 f4bc 06ad 333d 388a ba3c 959d ca3c
000000a0: bae2 2f3b 4f53 d6bc 3d74 0d3c ee29 43bd
000000b0: 7708 17bd f083 d7bc 71e1 033d 021c f53c
000000c0: c566 b9bc 8158 f1ba d8ae 053d fccb 4f3d
000000d0: 45ea a53c 77e6 e13b ac25 0c3d 8925 f6bc
000000e0: 04cd 1b3c 8a0e 22bd fcde 10bd b1f4 d7bc
000000f0: 9827 bd3c 251f a83c 79a1 f7bc e996 7c3c
00000100: e67e e53c 0d0f d3bb ed62 ff3a 01ba 413c
00000110: 4dac 013d e9b3 483d 0214 21bd 8933 99bc
00000120: dc4b a43c 9d2f 2d3d bae4 353d d76e 383d
00000130: 0365 263c 4dc3 35bd 17d4 993b 18c4 02bd
00000140: cbcc 42bd 2ab7 393d cbee 1e3d a581 50bd
00000150: 407e 1c3c 21d9 0cbc 9e96 09bc 125d bfbc
00000160: 24c3 a03c 3b9c f7bc 8c40 993c cd68 d33c
00000170: 3ba2 153d e94f 9c3c a8e0 4ebd b897 07bd
00000180: 9ebc d03c ccfe 2e3c 3c0e 23bd 1db8 f0bc
00000190: 6ca3 443d f1d7 0c3d 5847 b6bc 886e 52bc
000001a0: 731d 47bd dd72 70ba 2068 1dbd 3d3b 21bd
000001b0: 0346 38bb 0012 fb3b de33 abbc 2d0f f83c
000001c0: c365 febc 4da9 3d3d 583e 0f3d 0144 30bd
000001d0: 1f17 50bc 21e8 163b 3ff9 f33b b54c 463c
000001e0: 9d0d a43c 0d54 483b 0ffa cbbc 9dd0 c53c
000001f0: 5581 48bd 60c7 f7bc 864c 51bc cca2 cbbc
00000200: 1d3f 92bc e451 2bbd 7cd9 31bc 5db8 323c
00000210: e22b 08bd 85a1 2bbb 1fa1 153d abe6 abbb
00000220: 19e5 b93a f041 90bb a535 293c b8e7 043d
00000230: 12ff 453d cbbd 043d 0b73 463d d1de 71bb
00000240: 1dc5 3bbd ac2f c6bc 2f53 0e3d 4570 adb9
00000250: d3c9 cfbc 482d 20bd 5f9d 43bd d06a 30bd
00000260: 1d97 29bc 5342 e53c 5303 e23c ad96 49bd
00000270: 8762 023d 0590 23bd 31c2 30bc 9e81 a9bc
00000280: 500b 21bc 2229 24bc 2091 3bbd 7e7a 34bd
00000290: d2d4 02bc 0000 2d3a 6ee8 bdbc 4a7a 9d3c
000002a0: 0e22 3cbd cab3 61bb aad1 373d 8984 aabc
000002b0: a0bf 3c3d a465 973c 9da2 3cbd 963f 043d
000002c0: fef5 c0bb 649e babc 6325 273d 1de9 28bd
000002d0: 076f b33b 360d 2fbc 1d44 153d 0264 693c
000002e0: 9bdf c83c 04a3 933c 210f 49bc b7d5 2fbc
000002f0: 8840 2cbd 1384 e23c b5f5 253d d104 0f3d
00000300: bd70 13bd 9628 153b f858 13bd bb20 e6bc
00000310: 0d99 f3bc 80dd 8e3c 891e f9bc fced 91ba
00000320: feb0 0c3b bbbd 063d 3901 1ebd 377f 0fbd
00000330: 4fbe f2bc 624d 123d e345 96bc 044f 303d
00000340: 2f2b 973c fcbd d33b 212a c7b9 b247 25bc
00000350: 8ecd d13b d3ea 3ebc f1fd bbb9 f35b d53b
00000360: bc7f 23bd 761c dbbc e0c8 283d cda1 29bd
00000370: 8025 70bb 16c6 4e3d 8803 973c ea60 bd3a
00000380: 3b24 35bd 4417 cf3c 16e2 14bd 3856 6dbc
00000390: e842 8cbc 27a1 f7bb a453 123a 6367 2c3d
000003a0: eec0 d03b 7438 3b3d 5fb9 ff3c b825 04bd
000003b0: d67e bb3c f4c1 13bd b32d b1bc eee9 753c
000003c0: 1b09 8a3c a5d0 1c3d 6393 86bc ef52 ab38
000003d0: 5638 d73c 0725 4abd a31e 173d 8ed8 2cbd
000003e0: 0960 383a 5626 0ebc 752c dcbc b203 dd3b
000003f0: 5bd8 2c3d fb67 74bc 0d31 f8bc 189c 9abc

fc1.bias f4 [256]
-0.043267965 0.04784693 -0.024855407 0.014298982 0.026345048 0.048832502 0.031203846 0.00924028
0.0068504326 -0.045034293 0.04179697 -0.031820208 0.004516224 0.0228006 0.013992009 -0.028567499
-0.050923526 0.035592202 0.046410702 0.008640989 -0.03634955 0.046378475 0.020820074 -0.010920605
-0.005318992 -0.004750908 0.0295671 0.013998884 -0.04515357 -0.008608941 -0.023685556 -0.015938878
0.04757824 -0.0037425037 -0.025983842 0.017988056 -0.010905141 -0.012011287 -0.04989454 -0.031020211
-0.00330093 0.024192592 -0.019659383 -0.03965597 0.011638607 0.026837235 -0.0060535776 0.03393355
-0.019823823 0.032108176 -0.0069556567 0.017769499 -0.013790844 0.021894027 0.036535185 -0.0025032233
0.037337806 -0.002951957 0.049865946 0.04097083 -0.050673373 -0.024369916 -0.015165997 0.016995504
0.023647407 0.019346764 -0.00016467692 -0.036297526 0.0033381844 0.04619807 0.027018812 0.021521
-0.018732514 0.0032094908 -0.041560333 -0.03448784 -0.022031121 -0.042401828 -0.035021327 0.03149996
0.042923633 -0.026786944 0.027967168 -0.0053127017 -0.00048339705 0.044218324 0.045256414 0.020789608
-1.4295929e-06 -0.04078011 0.005691294 -0.040660772 0.018994506 0.004345226 0.022839844 -0.0057405634
0.0063837464 0.019116241 0.030086542 -0.0026939977 -0.016066909 0.0038991384 -0.03889605 0.0046631615
-0.0027322378 -0.0032901624 0.021150218 -0.037055783 -0.019884858 0.009287468 0.02303214 -0.028555034
-0.019840661 0.04291477 0.016289791 0.04030908 0.0146551635 0.046410285 -0.045734227 0.0054072677
0.0067956517 0.012151253 -0.015438307 -0.037427362 -0.03121718 -0.016253497 -0.0011725582 0.0467002
-0.049103588 0.04228776 0.03335736 -0.020809306 0.046794858 -0.046823546 0.047413938 0.03755077
0.0293862 0.012345349 0.050901864 0.039972242 0.012087974 -0.0025723486 -0.0011955046 0.047993623
-0.010172849 -0.049749352 -0.0060416358 -0.01612526 0.025794545 -0.0059284302 -0.029922375 -0.02397454
-0.05069689 0.022682663 0.017295938 0.015673077 -0.008463087 0.017989181 -0.020103483 0.014009639
0.012529809 -0.019162063 -0.027051223 0.04005918 0.023782901 0.0115356585 0.025633391 0.0016273877
0.026667582 -0.009602156 -0.04926324 -0.03766036 -0.0009156998 0.033165023 0.024818432 -0.039397378
0.011575516 -0.022911264 0.024340626 -0.0022998743 -0.03717381 -0.00064215483 0.019986639 0.026506951
-0.032019686 0.04974877 -0.015846781 -0.014356142 -0.008234492 -0.0014519432 0.04029771 -0.03227911
-0.032267634 0.034835175 -0.04367043 -0.007192738 0.034173645 0.024337005 -0.042731322 0.0016040397
-0.0395984 -0.008292813 0.003602294 0.047947247 -0.039058637 0.04328331 -0.05086893 -0.046035103
0.015635438 0.013573558 -0.050990436 -0.0049023293 -0.033027567 0.033924244 -0.015004386 -0.024317782
-0.0060345423 0.0035768352 0.028392913 0.0020681645 0.014442057 -0.021055128 -0.006913 0.046036046
-0.047163498 -0.0056644543 -0.0018551309 0.022434704 -0.037239227 -0.032174855 0.024715822 0.0148932
-0.02048713 0.04159866 -0.048590444 0.0107999295 0.020859335 0.050880134 0.025571773 0.027190352
-0.010680518 -0.050696865 0.021799637 0.010386624 -0.008758453 -0.034955375 0.040353574 0.027532522
0.049155895 -0.048202083 0.022750955 -0.02780951 0.046731073 0.0206217 -0.025155256 0.037205733
00000000: c039 31bd 24fb 433d 919d cbbc 4746 6a3c
00000010: 92d1 d73c 9704 483d 359f ff3c 8b64 173c
00000020: 9879 e03b e175 38bd 4d33 2b3d e855 02bd
00000030: d5fc 933b 53c8 ba3c bd3e 653c 6306 eabc
00000040: 3095 50bd 21c9 113d 2619 3e3d ef92 0d3c
00000050: 44e3 14bd 5bf7 3d3d dc8e aa3c 56ec 32bc
00000060: f04a aebb 81ad 9bbb b436 f23c 935b 653c
00000070: f3f2 38bd 840c 0dbc 3608 c2bc 4092 82bc
00000080: 67e1 423d cb44 75bb 11dc d4bc b05b 933c
00000090: 7aab 32bc fdca 44bc 385e 4cbd 191e febc
000000a0: 6a54 58bb 8b2f c63c b70c a1bc 4c6e 22bd
000000b0: dbaf 3e3c c3d9 db3c 175d c6bb e8fd 0a3d
000000c0: 9265 a2bc dd83 033d 47ec e3bb 5791 913c
000000d0: fef2 61bc 1a5b b33c eba5 153d 1e0d 24bb
000000e0: 87ef 183d 9f75 41bb 3c40 4c3d 07d1 273d
000000f0: e28e 4fbd 6ba3 c7bc cd7a 78bc 283a 8b3c
00000100: 35b8 c13c 1b7d 9e3c 20ad 2cb9 b7ac 14bd
00000110: 71c5 5a3b 303a 3d3d 8e56 dd3c cf4c b03c
00000120: ee74 99bc 5256 523b 2b3b 2abd 1f43 0dbd
00000130: 9c7a b4bc 8aad 2dbd 8672 0fbd 1a06 013d
00000140: b1d0 2f3d 4b70 dbbc 671b e53c 2c16 aebb
00000150: 7470 fdb9 461e 353d ca5e 393d f84e aa3c
00000160: 70e0 bfb5 0b09 27bd 097e ba3b e98b 26bd
00000170: 5e9a 9b3c 6662 8e3b a01a bb3c 561b bcbb
00000180: bf2e d13b aa99 9c3c 0d78 f63c c88d 30bb
00000190: c09e 83bc b088 7f3b 7751 1fbd 6fcd 983b
000001a0: 580f 33bb c49f 57bb 3943 ad3c cec7 17bd
000001b0: 92e5 a2bc 772a 183c e6ad bc3c 3fec e9bc
000001c0: e288 a2bc 66c7 2f3d 2b72 853c 221b 253d
000001d0: 361c 703c b618 3e3d d053 3bbd 732f b13b
000001e0: 0fae de3b 0d16 473c f4f0 7cbc 6f4d 19bd
000001f0: 2cbb ffbc 0e26 85bc 86b0 99ba b548 3f3d
00000200: d820 49bd ee35 2d3d baa1 083d 4778 aabc
00000210: f7ab 3f3d 0cca 3fbd 1e35 423d d6ce 193d
00000220: 54bb f03c 2644 4a3c 797e 503d efb9 233d
00000230: a30c 463c d994 28bb 7ab2 9cba f694 443d
00000240: 05ac 26bc fac5 4bbd eaf8 c5bb 1f19 84bc
00000250: 154f d33c 4743 c2bb c51f f5bc 4166 c4bc
00000260: 8ba7 4fbd fed0 b93c 36b0 8d3c d364 803c
00000270: c2a8 0abc 0c5e 933c 0fb0 a4bc af88 653c
00000280: d449 4d3c c2f9 9cbc 879a ddbc 1815 243d
00000290: 5cd4 c23c 0f00 3d3c 1efd d13c 124e d53a
000002a0: f975 da3c 5c52 1dbc 40c8 49bd c041 1abd
000002b0: 930b 70ba 0cd8 073d 0650 cb3c 255f 21bd
000002c0: 3ca7 3d3c 67b0 bbbc fe65 c73c 7db9 16bb
000002d0: 9143 18bd 4856 28ba 05bb a33c 1b25 d93c
000002e0: 1327 03bd 5ec5 4b3d 1cd1 81bc 0636 6bbc
000002f0: f6e9 06bc 214f beba 360f 253d 1a37 04bd
00000300: 112b 04bd 54af 0e3d c4df 32bd 0fb1 ebbb
00000310: aaf9 0b3d 665e c73c 0a07 2fbd a43e d23a
00000320: ef31 22bd 94de 07bc 7714 6c3b 5564 443d
00000330: f3fb 1fbd d749 313d f05b 50bd 4e8f 3cbd
00000340: e415 803c a163 5e3c 59db 50bd b8a3 a0bb
00000350: ea47 07bd 26f4 0a3d f5d4 75bc 1636 c7bc
00000360: 69bd c5bb 5669 6a3b 4198 e83c 0b8a 073b
00000370: 619e 6c3c ce7b acbc 7286 e2bb 4b90 3c3d
00000380: 832e 41bd e39c b9bb dd27 f3ba fcc8 b73c
00000390: 2988 18bd c8c9 03bd d678 ca3c 9c02 743c
000003a0: a0d4 a7bc 5b63 2a3d c606 47bd 30f2 303c
000003b0: 32e1 aa3c b067 503d e57b d13c 4dbe de3c
000003c0: 57fd 2ebc 84a7 4fbd 2795 b23c a92c 2a3c
000003d0: 9d7f 0fbc 5e2d 0fbd ca49 253d e28b e13c
000003e0: b157 493d 8c6f 45bd 3660 ba3c c5d0 e3bc
000003f0: 1569 3f3d d7ee a83c 6512 cebc 0a65 183d

fc2.weight f4 [128, 256]
-0.046924695 0.032715403 0.06016791 0.05271373 0.03421075 0.054716654 -0.007673256 0.047536068
-0.0011591986 0.036756948 -0.036948152 0.02741839 -0.040022917 0.034331433 0.0177757 -0.057864763
-0.058658913 0.011519305 -0.06232676 0.039236963 -0.044199467 -0.045680173 0.0041587204 0.03028293
-0.031136476 0.0055338964 0.058777094 -0.05494269 -0.006683886 -0.018934526 -0.034970343 -0.0043608025
0.05198489 0.024231993 -0.013021 -0.03202024 -0.05164542 0.008212209 0.04835538 0.008108094
-0.043560512 -0.023842677 0.031587757 0.0288871 0.023480728 0.060258135 -0.0010443702 -0.0023017526
-0.053773873 0.029131494 -0.043918535 -0.035862103 0.016787618 -0.0062722713 -0.062305495 -0.029803388
0.03582272 -0.05362036 0.012897149 -0.031487897 0.029813685 0.041033767 -0.007659793 0.026528686
0.011170462 -0.041442297 -0.013996139 0.0027543008 -0.048110656 -0.006410271 -0.0065570697 0.008748949
0.027672268 0.045814797 -0.057943292 -0.037292562 0.015744165 -0.059847116 -0.048295274 0.051158503
0.00543046 0.029138379 0.027335547 -0.048378333 0.0025964975 -0.012146212 -0.04267574 -0.03543999
-0.019386515 0.008647352 0.058825552 0.03327325 -0.018131405 0.011044599 0.023904748 0.058111526
-0.022642098 -0.029236414 0.04341568 -0.04859156 -0.0063630864 -0.021180794 0.026048817 0.0040417463
-0.010611542 0.019119814 -0.018985622 -0.020029515 -0.01838284 0.0213833 0.05669201 0.011312321
0.02935408 0.014587328 -0.061608568 -0.052780025 0.032886118 0.0042027533 0.05518525 0.05020067
0.00845293 -0.05448623 -0.0030739978 0.006814316 0.020053461 0.047787808 -0.022076793 0.01634866
0.008277521 -0.027083598 -0.014508963 0.009500489 0.0138911605 -0.051096506 -0.00078848004 -0.0009224415
-0.0127091855 0.054205835 -0.006987281 0.026282825 -0.058483593 -0.028382927 0.020061076 0.015469544
0.0038217902 -0.058693342 0.06232833 0.060887024 -0.013338096 -0.045106426 -0.0108815655 -0.019449033
0.049802624 0.05957538 -0.002307862 -0.032825164 -0.0022554696 0.010842092 0.05224374 -0.0094459355
0.023811445 -0.029564843 -0.061865136 -0.054642126 -0.025386505 0.029325336 0.0024287105 -0.05790212
-0.01088585 0.05447688 0.0117359385 -0.039056823 0.047369123 0.035337456 0.004734367 -0.002571009
0.03212014 0.0030351505 0.010065809 -0.05461072 -0.025556348 0.034661792 -0.031523556 -0.0085329935
0.03416934 0.0018507466 0.05203346 -0.024186112 -0.030864641 -0.034162216 -0.05258272 0.001478307
-0.025875323 -0.062219597 -0.024926357 -0.015699722 0.01906015 0.02814193 0.0104838535 0.052307315
-0.049101233 -0.0073362887 0.017420948 0.024145976 -0.0073723197 -0.032758057 0.026838385 0.060682707
0.057877675 0.009004697 0.008207634 0.038104363 -0.0072322786 0.024441592 0.007018544 0.0031835958
-0.02195412 0.005294226 0.03871286 -0.042552203 -0.0423162 -0.0064038336 0.006271288 0.05251143
-0.040694974 -0.038584545 -0.01119183 0.030558944 -0.049978353 0.019533545 -0.061673537 -0.013739459
0.060033888 -0.030815765 0.017735332 0.018086672 0.002688989 0.056176737 -0.04156547 0.011228152
-0.043507643 0.06052883 0.04847832 0.055837713 -0.051320106 -0.05245707 0.061549284 -0.06245868
-0.02294153 0.0031873658 -0.0058958754 -0.025889494 0.05424714 0.030754663 0.044702053 0.026848711
00000000: 1c34 40bd 9600 063d a072 763d 5aea 573d
00000010: 9220 0c3d 921e 603d f06f fbbb 2eb5 423d
00000020: 40f0 97ba 748e 163d f256 17bd 889c e03c
00000030: 12ef 23bd 1e9f 0c3d 589e 913c 9a03 6dbd
00000040: 5444 70bd 78bb 3c3c 584a 7fbd f0b6 203d
00000050: 800a 35bd 221b 3bbd e045 883b e813 f83c
00000060: ec11 ffbc b055 b53b 40c0 703d 960b 61bd
00000070: 8004 dbbb 941c 9bbc 103d 0fbd 10e5 8ebb
00000080: 1cee 543d 2c82 c63c 0856 55bc a827 03bd
00000090: 268a 53bd 808c 063c 4a10 463d d0d7 043c
000000a0: 826c 32bd b851 c3bc 2a62 013d a4a4 ec3c
000000b0: a85a c03c 3cd1 763d 40e3 88ba 00d9 16bb
000000c0: fe41 5cbd 2ca5 ee3c ece3 33bd 24e4 12bd
000000d0: 3086 893c a087 cdbb 0c34 7fbd 3c26 f4bc
000000e0: d8ba 123d 06a1 5bbd 904e 533c 74f9 00bd
000000f0: d43b f43c 0613 283d 00ff fabb b052 d93c
00000100: 5004 373c 66bf 29bd 1050 65bc 8081 343b
00000110: ae0f 45bd 400d d2bb b0dc d6bb c057 0f3c
00000120: f4b0 e23c 4ca8 3b3d f255 6dbd 16c0 18bd
00000130: e8f9 803c 4022 75bd 44d1 45bd 948b 513d
00000140: 00f2 b13b 9cb3 ee3c ccee df3c 5c28 46bd
00000150: 002a 2a3b e800 47bc c2cc 2ebd 8629 11bd
00000160: 78d0 9ebc a0ad 0d3c 10f3 703d 8849 083d
00000170: 5088 94bc 68f4 343c e4d3 c33c 5a06 6e3d
00000180: ec7b b9bc 3481 efbc a4d4 313d f207 47bd
00000190: 7081 d0bb 5883 adbc 5464 d53c a070 843b
000001a0: 08dc 2dbc 28a1 9c3c bc87 9bbc f014 a4bc
000001b0: 9c97 96bc 082c af3c e235 683d 5057 393c
000001c0: f877 f03c b0ff 6e3c 4459 7cbd de2f 58bd
000001d0: 98b3 063d 40b7 893b ee09 623d 389f 4d3d
000001e0: 287e 0a3c f42c 5fbd 2075 49bb a04a df3b
000001f0: 2847 a43c 26bd 433d 64da b4bc a0ed 853c
00000200: 709e 073c 6cde ddbc 00b7 6dbc f0a7 1b3c
00000210: c097 633c 924a 51bd 00b2 4eba 00d0 71ba
00000220: 303a 50bc f006 5e3d 90f5 e4bb 144f d73c
00000230: 7e8c 6fbd 5083 e8bc 2057 a43c f873 7d3c
00000240: 0077 7a3b 6e68 70bd fe4b 7f3d ac64 793d
00000250: 0888 5abc 84c1 38bd 9848 32bc 9453 9fbc
00000260: d6fd 4b3d 5005 743d 803f 17bb ae73 06bd
00000270: 80d0 13bb 08a3 313c 88fd 553d 20c3 1abc
00000280: 3810 c33c f831 f2bc 4c66 7dbd 6cd0 5fbd
00000290: 5cf7 cfbc b03b f03c 002b 1f3b c62a 6dbd
000002a0: 905a 32bc 2623 5f3d 1848 403c 0cfa 1fbd
000002b0: 2006 423d 02be 103d c022 9b3b 607e 28bb
000002c0: 6890 033d 60e9 463b 10eb 243c 7eaf 5fbd
000002d0: 8c5b d1bc 86f9 0d3d d81e 01bd f8cd 0bbc
000002e0: 26f5 0b3d c094 f23a 0a21 553d f421 c6bc
000002f0: d8d7 fcbc aeed 0bbd fa60 57bd c0c3 c13a
00000300: 7cf8 d3bc fad9 7ebd 5c32 ccbc b49c 80bc
00000310: 0824 9c3c e889 e63c 78c4 2b3c 3240 563d
00000320: 601e 49bd 4065 f0bb 60b6 8e3c c8cd c53c
00000330: 8093 f1bb 502d 06bd 2cdc db3c 6e8e 783d
00000340: 2411 6d3d 7088 133c 5079 063c 5213 1c3d
00000350: c0fc ecbb bc39 c83c d0fb e53b e0a3 503b
00000360: 20d9 b3bc 307b ad3b 6091 1e3d 384b 2ebd
00000370: c053 2dbd 40d7 d1bb 607f cd3b 3a16 573d
00000380: c6af 26bd d40a 1ebd f05d 37bc c056 fa3c
00000390: 1ab6 4cbd d004 a03c 649d 7cbd 781b 61bc
000003a0: 18e6 753d 5871 fcbc b049 913c 802a 943c
000003b0: c039 303b 9419 663d 8e40 2abd 48f6 373c
000003c0: 1235 32bd 14ed 773d 3491 463d 16b6 643d
000003d0: 0835 52bd 3add 56bd 1a1b 7c3d acd4 7fbd
000003e0: e0ef bbbc 20e3 503b 3032 c1bb 3416 d4bc
000003f0: 4032 5e3d 34f1 fb3c 8019 373d d4f1 db3c

fc2.bias f4 [128]
-0.046858564 -0.011336349 -0.0068508387 0.006820634 0.04029113 -0.024990164 0.061286338 0.061779507
-0.034631632 -0.0030566528 -0.057839975 0.042427056 -0.0056691617 -0.026912816 0.059193194 0.044663027
0.04109644 0.051878862 0.044999167 0.04947757 -0.042136207 0.004676372 -0.038529098 0.042688295
-0.047107548 -0.032785162 -0.027054645 0.052259274 0.058475442 0.038968742 -0.030742727 0.037636347
0.060682714 -0.024914376 0.059558637 -0.039690413 -0.060306706 0.034801126 0.06030234 -0.040876262
0.0046398714 -0.049743265 0.03561432 0.026813768 -0.03606113 -0.02183035 -0.043791838 0.006734699
-0.0326408 0.01656358 -0.033217847 -0.051666126 0.025178805 -0.049801514 0.00803718 0.053250805
-0.029277809 0.054753363 -0.06046085 0.030836374 -0.043570943 0.024396487 0.03215693 -0.052364722
0.016878016 -0.042955004 -0.021087192 -0.020151727 -0.018549174 0.020863965 -0.05814021 -0.014066793
-0.03806612 -0.048698433 0.013382368 -0.038401574 -0.03490857 0.05387722 0.003590472 -0.006571792
0.059246704 -0.005752079 0.03223896 -0.061245903 -0.022779219 -0.045745194 0.003909081 0.031249672
-0.007088527 0.048329584 -0.03734073 -0.030502595 -0.033362612 -0.061309837 0.0492286 0.0602237
0.0021150336 0.05351921 -0.023179442 -0.016264148 0.025704674 0.059141785 -0.036471203 -0.04753726
-0.05173502 0.03728445 0.06137366 -0.029103003 0.024381936 -0.06157986 0.019193307 0.045340277
-0.018082827 -0.024435624 -0.03527505 0.005947277 -0.050104238 -0.05216492 0.0034338832 -0.009228639
0.0037360042 -0.0141348615 -0.0002598241 0.013196096 0.03490389 -0.034076877 -0.0018382967 -0.05199728
00000000: c4ee 3fbd 18bc 39bc 007d e0bb a07f df3b
00000010: 5008 253d 2cb8 ccbc 6207 7b3d 820c 7d3d
00000020: e6d9 0dbd 2052 48bb 9ce9 6cbd fec7 2d3d
00000030: 60c4 b9bb 4478 dcbc 9074 723d 94f0 363d
00000040: be54 283d ee7e 543d 0c51 383d fea8 4a3d
00000050: 0497 2cbd 403c 993b b0d0 1dbd ecd9 2e3d
00000060: d8f3 40bd bc49 06bd b4a1 ddbc d20d 563d
00000070: f283 6f3d b09d 1f3d 2cd8 fbbc 9228 1a3d
00000080: 708e 783d 3c19 ccbc c2f3 733d 6a92 22bd
00000090: 2a04 77bd a08b 0e3d 96ff 763d de6d 27bd
000000a0: 100a 983b 98bf 4bbd 52e0 113d 8ca8 db3c
000000b0: d6b4 13bd 90d5 b2bc 125f 33bd c0ae dc3b
000000c0: 5cb2 05bd 58b0 873c 700f 08bd dc9f 53bd
000000d0: c843 ce3c acfc 4bbd 60ae 033c 841d 5a3d
000000e0: 04d8 efbc 1045 603d cca5 77bd 909c fc3c
000000f0: 7277 32bd 24db c73c fcb6 033d 647c 56bd
00000100: c443 8a3c 96f1 2fbd 0cbf acbc 3c15 a5bc
00000110: 70f4 97bc e8ea aa3c 6e24 6ebd 6878 66bc
00000120: 38eb 1bbd 0278 47bd b841 5b3c f84a 1dbd
00000130: 4afc 0ebd 5cae 5c3d 204e 6b3b 3058 d7bb
00000140: acac 723d f07b bcbb 000d 043d fcdc 7abd
00000150: 7c9b babc 505f 3bbd c017 803b 50ff ff3c
00000160: e046 e8bb 3ef5 453d 98f2 18bd 94e0 f9bc
00000170: 3ca7 08bd 0620 7bbd eea3 493d 20ad 763d
00000180: 609c 0a3b f636 5b3d d0e2 bdbc 643c 85bc
00000190: 9c92 d23c a83e 723d d462 15bd 6eb6 42bd
000001a0: 1ae8 53bd 94b7 183d f262 7b3d 6c69 eebc
000001b0: a0bc c73c 2a3b 7cbd 483b 9d3c bab6 393d
000001c0: 7022 94bc 382d c8bc 927c 10bd 60e1 c23b
000001d0: 1a3a 4dbd e2aa 55bd 000b 613b b833 17bc
000001e0: c0d7 743b e895 67bc 0039 88b9 7034 583c
000001f0: 62f7 0e3d 3294 0bbd 00f3 f0ba 1afb 54bd

fc3.weight f4 [64, 128]
0.0072901025 -0.12198636 0.03150694 0.0392474 0.053806823 -0.066066965 -0.09499664 0.04494445
-0.066544734 -0.11365025 -0.057988103 0.080499545 0.067334615 0.10839507 -0.02409551 -0.021580797
0.042147193 0.011957401 0.2616047 0.04470949 0.089806125 0.06411076 0.08117241 -0.05968582
-0.089613035 -0.19068879 -0.0436107 -0.036312655 0.12071778 0.12410284 0.021623772 0.10343969
-0.022549601 0.08438822 -0.09961469 -0.10182528 -0.23305592 -0.008168854 -0.18984908 0.0851418
-0.11800059 -0.073331684 0.061544795 -0.025993807 0.06998057 -0.12232889 -0.14674464 0.09538502
0.009775107 -0.0771904 -0.057521082 0.010757519 -0.039594878 0.078015424 -0.06508361 0.039131597
0.06741334 0.22084686 -0.091786906 0.088302135 0.123435006 -0.083422415 0.0035843514 -0.14157945
-0.048128527 0.039535187 -0.009554603 0.11926646 -0.032168634 -0.039714776 -0.113008626 -0.029418338
-0.14942224 0.014442701 0.037872683 -0.0005331368 0.04124919 0.12987264 -0.029572032 0.0085458625
-0.0060278103 -0.045288052 0.036783405 -0.1214558 0.044083398 -0.056712627 0.08990018 0.0751514
-0.007236979 -0.044296805 -0.16161901 -0.009554505 -0.056621067 -0.15031359 0.014842473 0.010937408
0.18325953 0.037954666 0.047772083 0.0012863853 0.06524408 -0.06661839 -0.010048201 0.07854583
-0.19111943 0.0751478 -0.0018418274 -0.006330245 -0.16295283 -0.052422337 0.16379872 -0.02898143
-0.15159276 0.040666346 0.057619296 -0.017029047 0.012889892 -0.014180051 -0.06016407 -0.09384025
-0.00048164008 0.03370645 0.0137113435 0.11111241 0.18068255 0.019513953 0.109069824 -0.04645663
0.041729886 0.24637496 -0.05931126 -0.08312797 0.09811979 0.0965597 0.11117833 0.24919172
0.17675458 0.1527317 0.035046253 0.026238654 -0.0891132 -0.17382509 -0.00014266692 -0.012421844
-0.13166831 -0.020465458 -0.22769889 0.040095758 0.15814711 0.015986186 -0.26529795 0.1022319
-0.063346915 -0.04387735 -0.15804254 0.048979137 -0.12685703 -0.17613707 0.056100693 -0.008915395
-0.002444224 -0.13342713 -0.10147227 0.015570391 -0.2903178 0.3494544 0.38091162 0.013660979
0.46153563 0.08650748 -0.05746189 0.19743067 0.100026436 0.20729154 0.16168514 -0.2158832
0.15650761 0.41230956 0.0055123367 -0.012353815 0.0019965947 0.04125839 -0.028522987 -0.24220127
-0.01860745 -0.42246488 -0.036826298 0.07788928 -0.12519671 0.26740795 -0.15697695 -0.010033637
0.02430939 -0.15788448 0.2535689 -0.017903732 0.08958885 -0.09106729 0.010611126 0.26205984
-0.037548065 -0.33046886 -0.15705343 0.27412286 -0.24987204 -0.7459006 -0.062498625 -0.0873549
0.013726609 -0.11548914 0.019948168 -0.032895207 -0.11916278 0.10511987 0.0584057 -0.24893354
-0.017239364 0.30793518 0.29074168 0.16069046 0.032412652 -0.18658072 -0.32079574 0.015506814
0.2762493 0.03218493 -0.61048263 0.07782111 -0.08057163 0.03661736 0.15213783 -0.06306533
-0.20240755 -0.15753673 0.0057324176 0.536371 0.009751668 -0.035385083 -0.30673346 -0.027290715
0.3387053 0.048097376 -0.074212 0.13090236 0.4049982 0.04774084 0.018085178 -0.22217663
-0.048935473 0.19592534 -0.20290986 0.06861587 -0.13073742 -0.23736641 0.14196005 -0.121726245
00000000: d0e1 ee3b fcd3 f9bd 6c0d 013d e2c1 203d
00000010: 8b64 5c3d 1e4e 87bd 998d c2bd ac17 383d
00000020: 9b48 88bd 76c1 e8bd ef84 6dbd f2dc a43d
00000030: bbe6 893d 3cfe dd3d f263 c5bc 36ca b0bc
00000040: 89a2 2c3d fae8 433c 0df1 853e 4c21 373d
00000050: 46ec b73d 814c 833d b83d a63d 1e79 74bd
00000060: 0a87 b7bd ec43 43be 22a1 32bd 94bc 14bd
00000070: e23a f73d a129 fe3d 5624 b13c 30d8 d33d
00000080: f1b9 b8bc bbd3 ac3d c902 ccbd c689 d0bd
00000090: 36a6 6ebe a8d6 05bc cc67 42be d35e ae3d
000000a0: 4baa f1bd ec2e 96bd 6516 7c3d f7f0 d4bc
000000b0: f951 8f3d 9287 fabd 3a44 16be 3959 c33d
000000c0: c527 203c 0016 9ebd 3a9b 6bbd 4e40 303c
000000d0: 3d2e 22bd 8dc6 9f3d 8e4a 85bd 7448 203d
000000e0: 0110 8a3d ae25 623e c6fa bbbd c0d7 b43d
000000f0: 7ecb fc3d 5fd9 aabd 70e7 6a3b 34fa 10be
00000100: 6b22 45bd a6ef 213d e98a 1cbc f941 f43d
00000110: 42c3 03bd f6ab 22bd 1171 e7bd bafe f0bc
00000120: 2502 19be 14a1 6c3c 6320 1b3d 34c2 0bba
00000130: e9f4 283d 55fd 043e 0c41 f2bc f203 0c3c
00000140: f084 c5bb f77f 39bd 32aa 163d d2bd f8bd
00000150: cb90 343d 804b 68bd 961d b83d fae8 993d
00000160: 2e24 edbb 9170 35bd 747f 25be 808a 1cbc
00000170: 7eeb 67bd ceeb 19be d82d 733c d032 333c
00000180: 63a8 3b3e 5a76 1b3d a9ac 433d ee9b a83a
00000190: b09e 853d 396f 88bd 36a1 24bc a3dc a03d
000001a0: d0b4 43be 17e7 993d 7969 f1ba f26d cfbb
000001b0: 1bdd 26be ceb8 56bd daba 273e 776a edbc
000001c0: 223b 1bbe c191 263d 3602 6c3d 8080 8bbc
000001d0: 2030 533c 7253 68bc 9a6e 76bd 512f c0bd
000001e0: a384 fcb9 c60f 0a3d 8ba5 603c e78e e33d
000001f0: d904 393e badb 9f3c 0060 df3d 4f49 3ebd
00000200: f5ec 2a3d b849 7c3e 5df0 72bd ff3e aabd
00000210: 07f3 c83d 18c1 c53d 77b1 e33d 1d2c 7f3e
00000220: 27ff 343e b365 1c3e a98c 0f3d 72f2 d63c
00000230: fb80 b6bd 34ff 31be dc98 15b9 fd84 4bbc
00000240: 0fd4 06be 2da7 a7bc e629 69be 733b 243d
00000250: 51f1 213e 76f5 823c 22d5 87be f55e d13d
00000260: 07bc 81bd bcb8 33bd e7d5 21be 599e 483d
00000270: cfe6 01be 475d 34be d7c9 653d e011 12bc
00000280: 462f 20bb 1fa1 08be b2d0 cfbd f41a 7f3c
00000290: 89a4 94be b0eb b23e d906 c33e 4dd2 5f3c
000002a0: 664e ec3e d52a b13d 295d 6bbd 442b 4a3e
000002b0: a9da cc3d 3c44 543e ca90 253e 7c10 5dbe
000002c0: 8843 203e 3d1a d33e d5a0 b43b a867 4abc
000002d0: 4dd9 023b 8ffe 283d 0aa9 e9bc 9c03 78be
000002e0: a76e 98bc 514d d8be 2cd7 16bd 6a84 9f3d
000002f0: 9133 00be b2e9 883e 91be 20be 2064 24bc
00000300: 7c24 c73c 78ac 21be c8d3 813e d9aa 92bc
00000310: 5c7a b73d 7d81 babd 4ada 2d3c b52c 863e
00000320: 00cc 19bd 3733 a9be 9dd2 20be d559 8c3e
00000330: 75de 7fbe 57f3 3ebf 8ffe 7fbd 20e7 b2bd
00000340: 92e5 603c 9285 ecbd 576a a33c 20bd 06bd
00000350: 9e0b f4bd 1649 d73d d13a 6f3d 6fe8 7ebe
00000360: 9139 8dbc aea9 9d3e 18dc 943e 0a8c 243e
00000370: 21c3 043d 040f 3fbe 573f a4be 4b10 7e3c
00000380: 8c70 8d3e 58d4 033d 9748 1cbf ad60 9f3d
00000390: bd02 a5bd 16fc 153d 05ca 1b3e 6528 81bd
000003a0: ed43 4fbe 4f51 21be 01d7 bb3b 9c4f 093f
000003b0: 76c5 1f3c f3ef 10bd 2b0c 9dbe c790 dfbc
000003c0: c86a ad3e c101 453d 76fc 97bd 450b 063e
000003d0: ed5b cf3e e68b 433d 5e27 943c 4582 63be
000003e0: 9070 48bd a7a0 483e 9ac7 4fbe 7a86 8c3d
000003f0: 08e0 05be 2e10 73be fa5d 113e 9c4b f9bd

fc3.bias f4 [64]
0.08464324 -0.07748076 -0.028971676 -0.031435255 -0.0045033 -0.06000448 0.008378548 -0.08350681
-0.18264467 -0.05290867 0.0075773178 0.16733423 0.04916425 -0.016101329 0.04354354 -0.053859957
0.19995694 0.018544748 -0.11921175 -0.047461655 0.12190446 -0.2519761 0.10119289 0.052322064
-0.033629417 0.17979307 0.057505883 0.049016353 0.08334675 0.082648955 -0.0014117006 0.07873504
-0.005779083 -0.103683546 0.07956871 -0.07860199 0.01059724 0.03012002 -0.1200733 0.008829174
0.08156056 -0.072885446 -0.075099215 -0.020658195 0.011479419 -0.30796915 -0.011538638 0.022282818
-0.15251572 0.05724145 -0.07377262 -0.11974508 0.028716816 0.17314795 0.1345095 0.07183433
0.15773274 -0.08773054 -0.064979985 0.029324716 -0.0026969132 0.024680693 -0.07888064 -0.026941268
00000000: 6f59 ad3d 3cae 9ebd 0256 edbc 41c2 00bd
00000010: 6b90 93bb 42c7 75bd 2d46 093c 9e05 abbd
00000020: 3407 3bbe c3b6 58bd 264b f83b aa59 2b3e
00000030: 7460 493d efe6 83bc b65a 323d 429c 5cbd
00000040: 83c1 4c3e 28eb 973c 4a25 f4bd 2767 42bd
00000050: 0ca9 f93d 0303 81be 383e cf3d a94f 563d
00000060: 00bf 09bd ad1b 383e 4a8b 6b3d 5fc5 483d
00000070: b3b1 aa3d db43 a93d d008 b9ba d63f a13d
00000080: 765e bdbb 0a58 d4bd ebf4 a23d 15fa a0bd
00000090: 0ca0 2d3c 43be f63c fee8 f5bd 3da8 103c
000000a0: 3909 a73d f744 95bd 9ecd 99bd 603b a9bc
000000b0: 2c14 3c3c 22ae 9dbe 8e0c 3dbc 758a b63c
000000c0: 152d 1cbe 0376 6a3d 1916 97bd e93c f5bd
000000d0: 873f eb3c b24d 313e dcbc 093e e11d 933d
000000e0: b184 213e 12ac b3bd 3a14 85bd 633a f03c
000000f0: b2be 30bb 2a2f ca3c 2c8c a1bd efb3 dcbc

fc4.weight f4 [10, 64]
-0.04366293 -0.4421555 -0.06414341 0.6476991 0.014012404 0.36411333 0.0038606762 0.082422204
-0.46002027 -0.16648664 0.2653394 0.29111654 -0.10631151 -0.39976132 0.06942783 0.12354354
-0.5307047 -0.12295963 0.098485425 0.14414804 0.257189 -0.42983907 -0.2011503 0.034940712
0.1155231 -0.64998037 -0.13186209 -0.10033634 -0.05158099 0.08769159 0.075944245 -0.050334442
-0.040970515 -0.14277911 -0.18504056 -0.06445561 -0.3202819 -0.061040208 -0.07717854 0.057404093
-0.0053555663 -0.10464719 0.35574928 0.09608895 0.6630551 -0.48553947 0.01132933 0.48791018
0.25340605 -0.056373376 0.055933468 -0.15698294 -0.3521889 0.31403545 0.4322275 0.15346043
-0.02401326 -0.073940955 -0.047305398 0.043261234 -0.68714106 0.67364806 -0.46584266 -0.07080971
0.17989266 0.0023612175 -0.058410402 -0.51421946 -0.05539992 -0.51473725 -0.14513811 -0.30013704
-0.12143263 -0.16561013 -0.4165279 0.7274201 -0.07992906 -0.11485032 1.0816586 -0.05172352
0.34733248 -0.06917038 -0.1940049 -0.20742993 -0.87453425 -0.29841012 0.11375417 -0.13153635
0.0497211 0.3928649 0.074144036 -0.4047194 0.012202896 0.121950485 0.059359927 0.93154347
0.00845909 -0.2939542 -0.17392677 -0.14190952 0.22142643 -0.0915041 0.30687594 -0.10783618
-0.2609365 0.075049885 0.10331653 -0.5851207 -0.26568323 -0.43764785 0.08725518 -0.18928476
-0.37238315 -0.319744 -0.020513413 0.49565983 -0.49981567 -0.0321147 0.3909493 -0.20845236
-0.18044056 -0.09030002 -0.090843245 -0.07441025 0.2830662 -0.5503791 -1.0089642 0.44076678
-0.06055007 0.64467484 0.056630388 -0.019262629 -0.0823063 1.1041287 0.2645359 -0.03101906
0.22664925 0.15729722 -0.33083883 -0.3015609 -0.096205324 0.11722959 -0.6261991 0.0629464
0.117961265 0.06244533 -0.039540824 -0.020866988 0.1343768 -0.06194965 -0.064759664 0.13310447
-0.35156447 0.3809215 -0.033912707 -0.11511871 -0.13215898 0.09262353 -0.23463577 -0.4888579
-0.09964852 0.17590387 0.24308497 0.069798954 0.061723422 -0.1352783 0.07993412 0.043816082
0.019429417 -0.019911872 -0.32455236 0.31224215 0.06642163 0.46139812 0.002316537 -0.3913193
0.08990294 0.49647 -0.04161874 0.03633378 0.735398 0.41533765 -0.1642121 -0.12572065
0.18000272 0.08804315 0.087831795 0.35367465 -0.5310135 -0.44511262 0.2931619 -0.04433233
-0.23620717 0.31418642 0.048033506 -0.01573143 -0.10433972 0.07637251 -0.30847 0.22796106
-0.20180583 -0.43334767 -0.26298347 -0.47217727 -0.1118934 0.47333848 0.04786831 -0.15225144
-0.4751649 0.029288622 -0.33640218 0.043216348 0.7316468 0.12594531 -0.12646215 -0.00097070204
0.19176611 -0.22353865 -0.24305011 0.52721345 0.0528111 0.33657885 0.3336485 -0.50798756
0.10775131 0.06883854 -0.14968939 0.03271461 0.5005773 -0.031671453 0.56206036 0.06990217
-0.111904554 0.02805063 -0.22739638 0.3796306 -0.2754322 -0.06652865 -0.0862413 -0.046779484
0.40273365 -0.50333685 0.091303706 -0.67709416 -0.11687954 -0.925454 -0.53493714 -0.17069687
0.25103876 0.1321138 -0.120929174 0.06623699 0.6263357 -0.09267902 0.6530904 0.40460896
00000000: e7d7 32bd 3562 e2be 9f5d 83bd 9ccf 253f
00000010: 4894 653c 106d ba3e 6603 7d3b f9cc a83d
00000020: c787 ebbe 797b 2abe 91da 873e 3a0d 953e
00000030: d9b9 d9bd 84ad ccbe 2e30 8e3d 6504 fd3d
00000040: 43dc 07bf 42d2 fbbd bab2 c93d 8b9b 133e
00000050: 47ae 833e de13 dcbe 58fa 4dbe fe1d 0f3d
00000060: 6097 ec3d 1d65 26bf db06 07be 247d cdbd
00000070: 9746 53bd a697 b33d a888 9b3d 7d2b 4ebd
00000080: b3d0 27bd b034 12be 467b 3dbe 4e01 84bd
00000090: fdfb a3be 4c05 7abd c80f 9ebd 8e20 6b3d
000000a0: bf7d afbb 4451 d6bd c524 b63e 49ca c43d
000000b0: fbbd 293f a198 f8be a79e 393c 5dcf f93e
000000c0: 70be 813e c5e7 66bd 7e1a 653d 23c0 20be
000000d0: 1a52 b4be 41c9 a03e ec4c dd3e bb24 1d3e
000000e0: 75b7 c4bc 5b6e 97bd 4ec3 41bd b132 313d
000000f0: 7ae8 2fbf 3374 2c3f ee82 eebe ae04 91bd
00000100: c835 383e a8be 1a3b bf3f 6fbd e3a3 03bf
00000110: 07eb 62bd d2c5 03bf 169f 14be 90ab 99be
00000120: acb1 f8bd b495 29be 2543 d5be 3438 3a3f
00000130: d9b1 a3bd a536 ebbd ca73 8a3f 0bdc 53bd
00000140: 90d5 b13e 33a9 8dbd 38a9 46be 8368 54be
00000150: 7ae1 5fbf 36c9 98be f2f7 e83d 77b1 06be
00000160: 5aa8 4b3d 9725 c93e d4d8 973d 6237 cfbe
00000170: a8ee 473c 2dc1 f93d 6523 733d a279 6e3f
00000180: ff97 0a3c 2a81 96be dc19 32be bb50 11be
00000190: 9cbd 623e 8066 bbbd d81e 9d3e 37d9 dcbd
000001a0: 7899 85be c1b3 993d 9e97 d33d 78ca 15bf
000001b0: a207 88be 6113 e0be d8b2 b23d ddd3 41be
000001c0: 01a9 bebe 7cb5 a3be bf0b a8bc 20c7 fd3e
000001d0: d7e7 ffbe b48a 03bd 822a c83e 8974 55be
000001e0: 69c5 38be 38ef b8bd 060c babd 6764 98bd
000001f0: 0eee 903e a5e5 0cbf bd25 81bf 2fac e13e
00000200: 5a03 78bd 6909 253f 44f5 673d a9cc 9dbc
00000210: 3590 a8bd 1754 8d3f 4071 873e af1b febc
00000220: be16 683e 8612 213e b563 a9be 3166 9abe
00000230: 4c07 c5bd 1116 f03d 964e 20bf 0bea 803d
00000240: ad95 f13d adc6 7f3d 8ff5 21bd 3ff1 aabc
00000250: 129a 093e ebbe 7dbd b7a0 84bd 8a4c 083e
00000260: 4200 b4be 2508 c33e 0de8 0abd 5cc3 ebbd
00000270: af54 07be 68b1 bd3d 5c44 70be 954b fabe
00000280: 8614 ccbd 2520 343e 44eb 783e c1f2 8e3d
00000290: b3d1 7c3d 6586 0abe 80b4 a33d 7e78 333d
000002a0: 712a 9f3c 391e a3bc ba2b a6be 34de 9f3e
000002b0: 1008 883d 603c ec3e 0bd1 173b 015b c8be
000002c0: 081f b83d 5131 fe3e 6978 2abd bbd2 143d
000002d0: 0b43 3c3f 23a7 d43e 3727 28be eabc 00be
000002e0: a252 383e f84f b43d 28e1 b33d d814 b53e
000002f0: 80f0 07bf cde5 e3be 5119 963e d195 35bd
00000300: 4be0 71be 0bdd a03e c8be 443d 33df 80bc
00000310: 10b0 d5bd 3169 9c3d c8ef 9dbe a06e 693e
00000320: 30a6 4ebe bfdf ddbe c5a5 86be 38c1 f1be
00000330: 5e28 e5bd 6c59 f23e 9011 443d cde7 1bbe
00000340: d048 f3be b1ee ef3c e83c acbe a003 313d
00000350: 344d 3b3f cff7 003e 4b7f 01be b676 7eba
00000360: 565e 443e 51e7 64be 21e2 78be 76f7 063f
00000370: 7450 583d 1054 ac3e fad3 aa3e 790b 02bf
00000380: b8ac dc3d 38fb 8c3d 2d48 19be c1ff 053d
00000390: d525 003f edb9 01bd 30e3 0f3f de28 8f3d
000003a0: 372e e5bd 6fca e53c 99da 68be f15e c23e
000003b0: 7305 8dbe 2c40 88bd 479f b0bd d89b 3fbd
000003c0: 1b33 ce3e afda 00bf 70fd ba3d 0b56 2dbf
000003d0: 8a5e efbd 8eea 6cbf a4f1 08bf 29cb 2ebe
000003e0: 2788 803e d748 073e b7a9 f7bd 42a7 873d
000003f0: 8957 203f 7fce bdbd ef30 273f e828 cf3e

fc4.bias f4 [10]
0.08551372 0.02282108 -0.012206227 -0.07480857 -0.1704738 -0.26992127 0.033626556 -0.010115623
0.47536403 0.21928939
00000000: d121 af3d 46f3 ba3c a0fc 47bc 3c35 99bd
00000010: af90 2ebe 1f33 8abe 00bc 093d ffbb 25bc
00000020: ea62 f33e 668d 603e
