test.pth (torch, 571470 bytes, 10 tensors)

fc1.weight f4 [256, 384]
000000 2f b9 aa 3a ac fd 85 3c 93 02 28 bd 98 dd ce bc
       0.001302516 0.016356312 -0.04101808 -0.025252149
000010 c2 61 9f bc 5f b4 0b 3d a1 6e d0 bc 86 81 0c 3d
       -0.019455794 0.034107562 -0.025443377 0.03430321
000020 3e 23 38 bc ec a6 bb bc 59 22 63 bb bd 86 0d bd
       -0.011238871 -0.022906743 -0.0034657924 -0.034552325
000030 7c a9 ce bb d8 7d a3 bc 2c d4 9a bd aa c4 f1 bc
       -0.006306825 -0.019957468 -0.0756 -0.029512722
000040 b1 7d 91 bb 03 2b 21 3d a5 19 3a bd d0 f2 4b bd
       -0.0044400324 0.03934766 -0.045434613 -0.04979211
000050 45 b9 ec bb 97 eb 1b 3d 5c e1 8f bc 60 ed 5f 3d
       -0.0072242343 0.038066473 -0.017563514 0.054669738
000060 e3 bc 4e bd fe 15 72 bc 6e b7 40 3d 80 12 b6 bd
       -0.050473105 -0.014775751 0.047049932 -0.08890247
000070 54 2a af bc 60 2a d4 b8 fc b3 5e bc d6 84 00 3d
       -0.021382488 -0.00010116841 -0.013592716 0.031376682
000080 be 1a d4 bc a8 cf 3b bd 30 68 49 bd 5e 01 ab bc
       -0.025891658 -0.045852333 -0.049171627 -0.020874675
000090 e8 0e 58 bd c3 ea b8 3c 4c 4b 05 bc ed fe cd 3a
       -0.05274859 0.02257288 -0.008135628 0.0015716233
0000a0 92 4d f5 3c 49 f1 74 bb 6f 9b 12 bc af ab 99 bd
       0.029944215 -0.0037375262 -0.008948191 -0.07503449
0000b0 ea 2c 6a bd 1c f9 a0 bc 9f 1d 86 bb a0 fa 1d 3d
       -0.05717174 -0.019650035 -0.0040928866 0.038569093
0000c0 42 dd 1e 3b c5 91 e0 3c 0c 9e f7 3b 03 a2 28 3d
       0.0024240767 0.027413258 0.0075566825 0.04117013
0000d0 0e 31 3a 3d f3 cd 6f 39 71 93 10 3d 0d 15 45 3c
       0.04545694 0.00022869538 0.03529686 0.012028945
0000e0 2e 57 10 3d 9f a0 d6 ba 07 96 8c bd a2 83 a7 bd
       0.03523939 -0.0016374773 -0.06864553 -0.08179404
0000f0 e2 53 d8 bc 1d 16 10 3d 08 87 bd bb 88 3f 99 bb
       -0.026407186 0.03517734 -0.0057839192 -0.004676763
000100 de d3 61 3c 7e e6 3e bc 78 48 4c bd 7c 58 47 bd
       0.013783423 -0.011651633 -0.0498738 -0.04866837
000110 d6 e5 51 3d 66 38 89 3d 6f dd f0 bc 76 e8 e1 3b
       0.05124458 0.0670021 -0.029402463 0.0068941666
000120 c5 e7 fe 3c 5c b0 12 3d 92 50 91 3d 6d 12 9b 3c
       0.031116376 0.03581272 0.07095446 0.018929685
000130 cf 86 92 ba a8 94 8e bc 5e 2e 57 3c 4b 74 c4 bc
       -0.0011179092 -0.01740487 0.013133613 -0.023981234
000140 94 1b 3c bd 93 2e 5f 3d 09 65 ce 3c 17 ab 40 bd
       -0.045924738 0.054487776 0.025194662 -0.047038164
000150 b0 9a b6 bb f7 76 8e bc 0f 51 fb ba b3 49 d5 bc
       -0.0055726394 -0.017390711 -0.0019173938 -0.02603612
000160 ac 69 38 3c f1 7e 0d bd 4b 95 6f 39 b3 0a 42 bc
       0.011255663 -0.03454489 0.00022848432 -0.011843371
000170 21 15 17 3b a5 f8 6b 3c af df 4a bd b5 1c 83 bd
       0.0023053365 0.014402543 -0.049529728 -0.0640196
000180 cf 9b 17 3d 16 42 f4 bb 57 95 f8 3b a0 f3 cb 3a
       0.037013825 -0.007454167 0.007586162 0.0015560277
000190 1a c9 97 3d 59 13 54 3d 51 2d 84 bd 06 d0 09 3c
       0.07411404 0.051776264 -0.06453956 0.008411413
0001a0 05 5b f7 bc 46 26 07 3d de 68 b1 bc 1a a5 40 bd
       -0.030194769 0.032995485 -0.02165645 -0.047032453
0001b0 e9 69 4c bd 54 f2 3f 3d 23 c6 a0 ba 5f 89 05 3d
       -0.04990569 0.04686196 -0.0012266081 0.03260171
0001c0 53 2b 4e bc 91 23 ab 3d 96 15 81 3d db 72 1b 3d
       -0.0125835715 0.08356393 0.06302945 0.03795133
0001d0 53 82 99 3b d5 a3 a3 bc e9 1b ec 3c 42 aa 6d 3d
       0.0046847253 -0.019975582 0.028821902 0.0580237
0001e0 79 ee 80 3d 70 92 1c 3b 0f de 23 bd 72 84 c9 3c
       0.06295485 0.0023890994 -0.040006693 0.024599288
0001f0 98 cb 7e bd 6b ac 4b bd 19 bc bf bc 9f b1 18 bd
       -0.06220588 -0.049724977 -0.023405122 -0.037278768
000200 ad f6 c5 3b 7b 45 2b bd f1 bd 06 bd e2 2f 04 bc
       0.006041369 -0.04181431 -0.032895986 -0.008068057
000210 2c 0f 0a bd fe bb 37 3c 68 86 90 3d 17 22 b6 bc
       -0.033705875 0.011214254 0.07056886 -0.022233052
000220 0f a7 84 3d 85 15 b1 bd dd 45 39 bb 01 f1 82 3d
       0.064771764 -0.08646683 -0.0028270402 0.06393624
000230 10 21 d3 3d 3b 5d 24 3c a4 bc 9a 3c f6 6a 3d 3d
       0.103090405 0.0100319935 0.018888779 0.046244584
000240 e2 02 3e bd 82 68 f3 bc 25 25 2e 3d af ac 13 bc
       -0.046389468 -0.02971292 0.042515893 -0.009013339
000250 ed a8 f7 3a 20 34 b8 bc 83 8b ed bc ba dd 40 bd
       0.0018894948 -0.022485793 -0.028997188 -0.047086455
000260 95 47 8a bd c8 c5 c1 bc 5c 38 8a 3d af 24 63 bd
       -0.067519344 -0.02365388 0.06749031 -0.055454906
000270 d8 32 cd 3c 80 d0 77 bd c6 6d ae bc 27 43 c0 bc
       0.025048658 -0.060501575 -0.021292578 -0.02346952
000280 fb 0d 75 3c 2b 42 3a bc b3 59 0f bd 0c e9 33 bc
       0.0149569465 -0.011368315 -0.034997653 -0.010980856
000290 ad 53 27 3d 4e 1c 0b bd 3a 95 70 3c 01 a3 9a 3d
       0.040851284 -0.03396254 0.014684016 0.07550622
0002a0 63 f7 46 bd 94 54 b4 bc bf a3 e3 3d f7 55 f9 bc
       -0.04857577 -0.022012986 0.111152165 -0.030436499
0002b0 24 25 92 3d 35 78 01 3d a8 f5 ba bd 7f d8 c9 bb
       0.0713599 0.03160878 -0.091288865 -0.0061598415
0002c0 c4 b2 3a 3d 82 88 9d bb a1 1c a9 3d c6 61 7a bd
       0.04558064 -0.0048075328 0.08257414 -0.0611284
0002d0 35 16 c3 bc b2 62 9d bd ea c9 f1 3c c1 53 bb bc
       -0.0238143 -0.0768484 0.029515225 -0.022867085
0002e0 5b a7 ee 3b 5f 63 ef 3c 86 ed 08 bc 3b 96 52 bd
       0.007283134 0.029222189 -0.008357411 -0.051412802
0002f0 a7 06 5f bd ea 7e e5 3b ae c8 d9 3c d9 69 b4 3b
       -0.054449704 0.0070036547 0.02658495 0.005505782
000300 ef 93 3a bd 41 a6 63 bc 95 47 f2 bb 3b 3c d2 bc
       -0.045551237 -0.0138946185 -0.007393787 -0.025663486
000310 69 2d d6 bc dd e7 0f 3c 74 59 5c bc 8c 85 3c 3c
       -0.0261447 0.008783308 -0.013449062 0.011506449
000320 90 08 ea bc cf 83 6c 3d 55 1b 37 bd dd 68 8b 3b
       -0.028568536 0.05774289 -0.0447038 0.004254444
000330 37 e6 84 bd 51 c7 52 3d 90 f1 3a bc 30 b1 9f 3c
       -0.064892225 0.051459614 -0.011410132 0.01949367
000340 ce c3 a9 3c 89 0c b6 3c 90 53 aa bc b9 fd c3 bc
       0.02072325 0.022222774 -0.020791799 -0.023924695
000350 bd 25 48 3d ef f8 40 3c 20 a9 16 bc d9 18 66 3b
       0.048864115 0.0117781 -0.009195596 0.0035110025
000360 b6 a7 8d bd 20 c8 a8 3c 96 5b 2c 3d 46 35 4b bc
       -0.06916754 0.02060324 0.04207953 -0.012402838
000370 41 73 eb bc c2 d1 3c 3d ec 7e 02 bc be 3f 95 3c
       -0.02874148 0.04609848 -0.007964831 0.018218871
000380 8a fc 90 bd bc 46 e5 ba fb 22 c8 bc 1a f5 e9 ba
       -0.07079418 -0.0017492394 -0.024430742 -0.0017849535
000390 f1 27 2c bc cb 69 e0 bc 30 16 ab 3c 95 0f 82 3d
       -0.01050757 -0.027394196 0.020884603 0.06350628
0003a0 b4 1e aa bc e3 5e a8 3d d8 da ec 3c 9f ec 26 bc
       -0.020766594 0.08221223 0.028912947 -0.010188251
0003b0 44 52 26 3d 91 09 94 3b da 97 1d bd 75 ea 44 3d
       0.0406058 0.004517742 -0.038474895 0.04807516
0003c0 b7 1e 7c 3d e1 5d 86 3d cc 51 c3 bc 81 b4 f0 bc
       0.06155273 0.06560875 -0.023842715 -0.029382946
0003d0 6c 9f 3b 3d c9 6e a2 bc d3 87 fb 3c e6 47 53 bd
       0.045806333 -0.019828217 0.030704414 -0.05158224
0003e0 5e c7 79 bd 38 0c 8d 39 9b 03 da bc ff 2f 5f bc
       -0.060981147 0.0002690272 -0.026613047 -0.013622283
0003f0 e8 9b 70 3d 37 28 3f bd 81 fb 98 bd 3b c6 57 bd
       0.058742434 -0.04666921 -0.074698456 -0.05267928

fc1.bias f4 [256]
000000 24 af 32 bd 65 50 3d 3d 76 8b e1 bc be ff 68 3c
       -0.04362406 0.04621925 -0.02753232 0.01422113
000010 67 64 db 3c 04 a7 43 3d 01 d9 f6 3c 93 4b 19 3c
       0.026781274 0.0477667 0.030132772 0.009356397
000020 de 24 a3 3b fc 2d 3b bd a9 95 22 3d 50 1d 04 bd
       0.00497876 -0.04569815 0.03969351 -0.032254517
000030 07 6b 92 3b 52 7b ae 3c c7 63 f0 3b c9 82 d6 bc
       0.004468325 0.021299038 0.007336113 -0.02618541
000040 aa f8 4c bd f9 09 0d 3d 06 0c 3d 3d 81 ab 2c 3c
       -0.050041832 0.03443334 0.046154045 0.010538937
000050 e3 2a 1a bd 02 2c 31 3d 6c 40 95 3c 3d 62 1c bc
       -0.037638556 0.04325486 0.018219195 -0.009544906
000060 4c a7 ba bb 79 06 cc bb 3f f9 ce 3c 66 47 63 3c
       -0.005696213 -0.0062263575 0.025265334 0.013872003
000070 00 67 2b bd 78 35 38 bc 95 45 b8 bc 43 6a 91 bc
       -0.041846275 -0.011243217 -0.022494117 -0.017750865
000080 b7 22 3e 3d c5 73 9a bb 66 3a e6 bc 4b 05 7b 3c
       0.046419825 -0.004713508 -0.028104018 0.015321086
000090 14 f1 24 bc ac 45 54 bc 98 b7 4c bd 99 68 0b bd
       -0.010067243 -0.012956064 -0.049979776 -0.0340353
0000a0 cb 45 9b bb 1e 4e a8 3c 65 20 9c bc 46 e6 29 bd
       -0.0047385446 0.020545062 -0.019058416 -0.04147937
0000b0 d8 0f 36 3c dc f2 cf 3c f7 ab 23 bc ba 1c 02 3d
       0.011112176 0.025384359 -0.00998973 0.031765677
0000c0 13 10 95 bc 31 e7 e5 3c 0a d9 28 bc 56 ec 8d 3c
       -0.018196141 0.028064342 -0.010305652 0.017324608
0000d0 b7 0c 78 bc 0c 32 ad 3c ad 34 13 3d 80 65 a2 bb
       -0.01513975 0.021142028 0.035938907 -0.0049559474
0000e0 89 7a 13 3d de 13 dd ba 74 1f 41 3d c3 3e 22 3d
       0.03600553 -0.0016866883 0.047149137 0.039610635
0000f0 9c 77 51 bd 49 ed c0 bc b9 a3 84 bc 79 04 65 3c
       -0.05113946 -0.023550646 -0.01619135 0.013978117
000100 f1 05 ce 3c 0c 9d 78 3c 04 f6 87 ba c6 0a 22 bd
       0.025149317 0.015174162 -0.0010373001 -0.039561056
000110 6e 84 9d 3b 34 15 35 3d 88 ae d2 3c 64 21 a8 3c
       0.0048070466 0.044209674 0.025717989 0.020523734
000120 f2 f6 90 bc b7 38 24 b6 ee d3 37 bd 76 d1 0e bd
       -0.017695878 -2.4470917e-06 -0.044879846 -0.034867726
000130 af c8 ac bc b7 a6 41 bd 12 e1 0c bd 96 4c cd 3c
       -0.021091787 -0.047278132 -0.03439433 0.025060933
000140 e4 99 26 3d fa 81 f7 bc 73 c4 e4 3c cb 72 bc bb
       0.040674105 -0.030213345 0.027925706 -0.005750989
000150 2a 7b b5 ba c8 78 20 3d 79 ab 38 3d e4 28 87 3c
       -0.001384591 0.039177686 0.045085404 0.01649899
000160 8c 19 37 bb 61 96 2a bd a3 07 5a 3b b7 69 2b bd
       -0.002793881 -0.04164732 0.0033268712 -0.041848864
000170 bd 96 9e 3c 95 59 cd 3b 47 95 c2 3c 0d d2 34 bc
       0.019358987 0.0062667825 0.023752822 -0.011036408
000180 ec a9 b1 3b 4e 6b 9a 3c da 7f c5 3c 73 9a 6c bb
       0.0054218676 0.018849995 0.024108816 -0.00361028
000190 07 ff 94 bc 64 f8 da 3a b9 11 2a bd a8 77 16 3a
       -0.018188013 0.0016706106 -0.041520808 0.0005739876
0001a0 8c 7c 73 bb a1 41 4b bb 25 02 b3 3c 15 d5 20 bd
       -0.0037153093 -0.003101446 0.021851609 -0.03926571
0001b0 c6 83 8c bc 21 3c 1b 3c 82 78 c4 3c 94 60 e3 bc
       -0.017152678 0.009474785 0.023983244 -0.027756013
0001c0 d0 60 92 bc df 6b 2c 3d 82 28 76 3c 88 9a 26 3d
       -0.01786843 0.04209506 0.015024306 0.040674716
0001d0 1a 5a 47 3c a4 c0 40 3d 39 7f 3d bd 71 7b 9c 3a
       0.012167478 0.047058716 -0.046263907 0.0011938644
0001e0 f2 39 e1 3a 04 cf 26 3c b9 74 6a bc ff 4e 22 bd
       0.0017183407 0.010181192 -0.014310055 -0.039626118
0001f0 a0 ec 16 bd 5a a5 91 bc 61 5b 78 ba e1 d4 3f 3d
       -0.036846757 -0.017779041 -0.0009474066 0.046833877
000200 7c 25 4d bd 99 f0 28 3d 46 08 07 3d 69 09 b1 bc
       -0.050084576 0.041245077 0.032966875 -0.021610932
000210 90 a5 43 3d 95 21 40 bd d9 f2 4c 3d 3b 4c 11 3d
       0.047765315 -0.046907026 0.050036285 0.03547309
000220 ab a0 ed 3c e3 37 18 3c c4 d7 51 3d 48 f7 20 3d
       0.029007277 0.009290668 0.05123116 0.039298326
000230 e6 91 61 3c c0 e2 10 bb 88 36 3b bb 51 01 3c 3d
       0.013767695 -0.002210781 -0.0028566439 0.045899693
000240 26 6a 4e bc 2b 9c 61 bd d0 8d c5 bb a2 98 85 bc
       -0.01259855 -0.055080574 -0.0060288683 -0.016308133
000250 c3 a8 e7 3c ef db 22 bc 9b 4f f0 bc 9d 62 c5 bc
       0.028278714 -0.009940132 -0.029334834 -0.024094874
000260 95 66 55 bd fb e5 ad 3c 96 f9 90 3c 10 34 5f 3c
       -0.052099783 0.021227827 0.017697137 0.0136232525
000270 78 ba 24 bc d1 12 8b 3c 4a f4 a5 bc 91 90 39 3c
       -0.010054223 0.016976746 -0.020258088 0.011325971
000280 d6 91 1c 3c 14 fc 97 bc 3b 1c e9 bc 8b c7 26 3d
       0.009556254 -0.018552817 -0.028455844 0.040717643
000290 d4 47 b9 3c 14 ea 15 3c a7 72 a7 3c 6f 8a ca 3a
       0.022617258 0.009150047 0.020440413 0.0015452633
0002a0 61 51 b1 3c 8c 11 3e bc 8f 83 4d bd 6e 48 13 bd
       0.02164525 -0.011600863 -0.050174292 -0.035957746
0002b0 99 60 d6 ba 3e 09 fd 3c 58 38 d3 3c 32 70 26 bd
       -0.0016355693 0.030888196 0.025783703 -0.04063434
0002c0 e6 53 36 3c c6 30 c0 bc b5 ad d6 3c 02 a5 95 ba
       0.011128401 -0.023460757 0.026205877 -0.0011416974
0002d0 c1 54 09 bd c2 5f d9 ba 7b d5 ac 3c 27 cf b4 3c
       -0.033528093 -0.0016584324 0.02109789 0.022071434
0002e0 dc fc 10 bd 1a 27 4a 3d dd f6 5e bc c0 1d 2e bc
       -0.035397395 0.049353696 -0.0136086615 -0.01062721
0002f0 a8 ad 56 bc c4 f6 aa bb 65 b5 26 3d 14 b5 08 bd
       -0.013102926 -0.005217405 0.040700335 -0.033375815
000300 2d 95 02 bd a2 41 f2 3c 8a 28 25 bd da 57 e2 bb
       -0.031880546 0.029572312 -0.040321864 -0.0069074454
000310 3b db 03 3d c9 b3 b4 3c 99 ef 3f bd c8 e5 be ba
       0.032191496 0.022058384 -0.046859358 -0.001456433
000320 c6 7d 26 bd 46 1c 3e bc 46 8b e8 3a 0b 7f 3f 3d
       -0.04064729 -0.011603421 0.0017741702 0.046752017
000330 b7 0f 1d bd 1c ba 31 3d 77 d9 54 bd e6 ed 37 bd
       -0.038345065 0.04339038 -0.051965203 -0.044904612
000340 9c 71 4c 3c b0 6a 47 3c d7 0b 6f bd 9f be 01 bc
       0.012478258 0.012171432 -0.0583609 -0.007918983
000350 7e 81 0d bd f2 68 ee 3c f3 8d 79 bc 25 f9 d6 bc
       -0.03454732 0.029102776 -0.015231597 -0.026241848
000360 be b7 ac bb eb 18 87 3a e3 f9 d1 3c cc df 31 3b
       -0.005270927 0.0010307109 0.02563185 0.002714145
000370 ce 33 55 3c bf c0 ac bc be df 0a bc e3 d6 3d 3d
       0.0130128395 -0.021088002 -0.008476196 0.04634751
000380 d3 4c 44 bd 70 fe ec bb af b5 0e bb d3 e0 ae 3c
       -0.047924828 -0.0072324798 -0.0021775772 0.021347439
000390 c0 07 1d bd d0 02 11 bd fb 38 b8 3c d1 51 84 3c
       -0.03833747 -0.035403073 0.022488108 0.016152294
0003a0 8b c4 ab bc 8a 9e 2b 3d 34 94 5c bd 31 51 31 3c
       -0.020967742 0.04189924 -0.053852275 0.01082258
0003b0 e0 74 a5 3c 61 3d 40 3d a9 56 bd 3c 21 23 e5 3c
       0.020197332 0.046933535 0.023112612 0.027970852
0003c0 d0 5b 65 bc 2a b3 4b bd 9e 9f 9e 3c b6 d4 d9 3b
       -0.013998941 -0.04973141 0.01936322 0.0066476716
0003d0 17 24 04 bc 14 39 0e bd 03 b8 33 3d ea eb d5 3c
       -0.008065245 -0.034722403 0.04387666 0.02611347
0003e0 1b bd 47 3d 65 90 5d bd 78 4c b1 3c a6 a9 e9 bc
       0.04876433 -0.054092783 0.021642908 -0.028523277
0003f0 3b ea 3a 3d 97 dc 98 3c f7 2e dd bc 75 3d 18 3d
       0.045633536 0.018659873 -0.026999934 0.037167985

fc2.weight f4 [128, 256]
000000 76 8c 57 bd 4d bf 99 3c 7c c0 5a 3d ee 93 8f 3d
       -0.05262419 0.018767977 0.053406224 0.07010637
000010 a0 c9 c6 3c 53 5c 77 3d 9d a3 e1 bc 85 8e 55 3d
       0.024266064 0.06039078 -0.027543837 0.05213787
000020 a1 84 1e bc e1 be de 3c e8 b4 2a bd ee d2 17 3d
       -0.009675176 0.027190628 -0.041676432 0.037066393
000030 47 e9 23 bd 8c 7e 03 3d d5 9c 51 3d 97 c7 4a bd
       -0.040017392 0.032103106 0.051174957 -0.04950675
000040 04 46 a3 bd 4e 59 05 3d 0e 62 a3 bd aa e3 12 3d
       -0.07972339 0.03255587 -0.07977687 0.03586165
000050 8b ca 61 bd 0f 17 30 bd e4 b2 c0 3c 90 32 a6 3c
       -0.0551248 -0.04299074 0.023522802 0.020287782
000060 3f 50 b2 bc 5f db e3 ba 74 58 55 3d d7 d3 4b bd
       -0.02176678 -0.0017384103 0.05208631 -0.049762573
000070 9c 46 78 bb 7d 7d 7f 3b 1d da 15 bd dc b9 fd bb
       -0.0037883883 0.003898471 -0.036584962 -0.0077431034
000080 85 32 82 3d 62 53 88 3c 4f f1 35 bd 4d 11 09 bd
       0.06357292 0.016641323 -0.044419583 -0.033463765
000090 64 ec 55 bd 12 02 98 bc f0 40 7e 3d 27 b0 cc 3c
       -0.052227393 -0.018555675 0.062073648 0.02498634
0000a0 52 04 20 bd 03 e3 48 bd 8f 99 e3 3c 93 26 af 3c
       -0.03906662 -0.04904462 0.027783183 0.021380698
0000b0 b6 a8 85 3c 66 dd 7d 3d 80 4f c3 bc 95 83 99 bc
       0.0163158 0.06197872 -0.02384162 -0.018739501
0000c0 21 4c 57 bd d0 ff 1b 3b 56 0a db bc eb 62 48 bd
       -0.052562837 0.00238036 -0.026738327 -0.04892246
0000d0 2b fa 89 3c e5 b9 b9 bc 14 7b 07 bd 91 06 9c bc
       0.016842922 -0.02267165 -0.03307636 -0.0190461
0000e0 fa e6 5d 3d e3 f3 62 bd 6d 84 b6 3c ca f9 11 bd
       0.054175355 -0.05540837 0.022279942 -0.035638608
0000f0 bb 13 83 3c 83 74 1d 3d 66 f5 b7 bc 15 4b 4a 3d
       0.01600062 0.038441192 -0.022455882 0.04938801
000100 ac 27 5b bc d0 3a 24 bd 43 14 8e bc 14 86 f3 3b
       -0.013376158 -0.04009515 -0.017343646 0.007431755
000110 80 e5 63 bd 12 97 62 bb 90 8d cb ba 55 86 73 3c
       -0.05563879 -0.0034574908 -0.001552986 0.01486357
000120 e0 36 0c 3d 85 34 ed 3c 4a 8f 21 bd 4b e6 17 bd
       0.03423202 0.028955707 -0.03944329 -0.03708486
000130 2d 37 0f 3b ab 55 ad bd 57 41 1e bd df 50 61 3d
       0.0021852956 -0.084636055 -0.03863653 0.055008765
000140 83 ff 07 3c f6 03 a9 3c c8 f7 74 3c 9e dc 33 bd
       0.008300665 0.020631772 0.014951654 -0.04391157
000150 bd 59 89 3c 81 86 05 bd a4 7b 58 bd 38 be 8a bd
       0.016766423 -0.032598976 -0.052852288 -0.067745626
000160 13 26 26 bc 9f 15 45 3c 85 ab 03 3d 0f 85 f1 3c
       -0.010140914 0.012029081 0.032145996 0.029482393
000170 69 49 d1 bc c6 df 44 ba ce 18 2f 3c c5 4a ab 3d
       -0.0255477 -0.00075101515 0.010687066 0.083638705
000180 54 82 cd bc 91 2d ba bc 2a e4 3a 3d 21 81 51 bd
       -0.02508656 -0.022726806 0.04562775 -0.051148538
000190 da 4e 0d 3c d7 fb d5 bb 12 e0 88 3c 7f 55 91 3c
       0.008624757 -0.006530266 0.016708408 0.017740963
0001a0 05 a4 00 bd 7f 38 c0 3c a3 f9 a0 bc cb 54 56 bc
       -0.03140642 0.02346444 -0.019650286 -0.01308174
0001b0 99 da ec bc 82 40 69 3c 54 63 85 3d 45 5a 97 3c
       -0.02891283 0.014236571 0.06513086 0.018475661
0001c0 87 75 3c 3d 01 3e 50 3b 26 ab 4c bd 34 94 6b bd
       0.04601052 0.0031775238 -0.049967907 -0.057514384
0001d0 d4 8c b9 3c e9 0e e5 3b 58 69 17 3d 02 24 06 3d
       0.02265016 0.006990303 0.036965698 0.032749183
0001e0 05 b5 e3 3c 32 f9 44 bd a5 ec b7 bc 92 42 24 bc
       0.027796278 -0.048089214 -0.022451708 -0.010025637
0001f0 86 10 ef 3c d7 dc ff 3c 6f 93 06 bd 87 cc 25 bc
       0.029182684 0.031233234 -0.032855447 -0.010119564
000200 8a fa d6 3b 54 12 0f bd 13 90 1a bd 36 a5 0c 3c
       0.0065606283 -0.03492959 -0.037735056 0.008584311
000210 99 bd 42 3c ba 8f 8a bd e3 76 b3 bc 2f 1e 33 3d
       0.011886024 -0.06765695 -0.021907276 0.043729957
000220 78 8a a6 bc 41 11 a8 3d 75 07 d2 bb 5d cb ed 3c
       -0.020329699 0.08206416 -0.0064095804 0.029027635
000230 e5 64 3f bd 11 dd a8 bc 74 9c 99 3c d0 cb 8e 3b
       -0.04672708 -0.020613225 0.01875136 0.0043577924
000240 56 b0 15 3d 5c 9e 89 bd 8d bb 49 3d ee fe 77 3d
       0.03654512 -0.06719658 0.049251128 0.060545854
000250 75 eb 2a bd b7 7d ff bc 94 aa 87 3b f1 74 05 bd
       -0.041728456 -0.031187875 0.0041402075 -0.032582227
000260 e1 ee 51 3d a7 99 87 3d 5f 05 94 bc d1 ff e4 bc
       0.051253203 0.06621104 -0.018068967 -0.027954014
000270 aa c9 b3 b9 6a 5e 66 3c d6 fc 09 3d 1b 2b db bc
       -0.00034291792 0.014060596 0.03368839 -0.026753953
000280 be 99 ce 3c 1a 11 d0 bc b4 5c 82 bd f3 03 b2 bd
       0.025219794 -0.02539878 -0.06365338 -0.086921595
000290 23 23 59 bc 38 a2 cb 3c 04 4d 10 3c 22 5c 97 bd
       -0.013253006 0.024857625 0.008807424 -0.0739062
0002a0 4e 0f fe bc 86 35 37 3d 08 57 e6 bc cf f6 57 bd
       -0.031013157 0.04472878 -0.028117672 -0.05272561
0002b0 c9 58 56 3d ab e2 86 3c ce 27 14 3b 80 45 e6 39
       0.052330766 0.016465506 0.0022606733 0.000439208
0002c0 27 73 49 3d 34 33 c9 3b c4 c3 0f bc e0 c4 88 bd
       0.049182083 0.006140137 -0.0087747015 -0.06678176
0002d0 89 42 8a bd a9 b3 2d 3d ab 54 32 bd 44 ee f4 ba
       -0.06750972 0.042407665 -0.043537777 -0.0018686731
0002e0 aa b5 fd 3c eb 26 92 3b d3 9b 40 3d f6 40 17 bd
       0.030970413 0.004460206 0.047023606 -0.036927186
0002f0 75 77 c2 bc 20 30 94 bc 2e 9d 36 bd c0 78 fc ba
       -0.023738602 -0.018089354 -0.044583492 -0.001926206
000300 87 ab 04 bd 71 19 b0 bd 0c 3c e7 bc 12 be b1 bc
       -0.032390144 -0.085986026 -0.028226875 -0.021697078
000310 ba 95 91 3b 17 e6 17 3d eb e7 d0 bb b4 42 22 3d
       0.0044428976 0.037084665 -0.006375303 0.039614394
000320 c3 c3 52 bd bb 70 9a bc 75 f7 02 3c 8d 4f 88 3c
       -0.051456224 -0.018852582 0.007993569 0.016639495
000330 5e df dc bb c2 f8 e3 bc 07 9f 14 3d d7 e5 7a 3d
       -0.0067404946 -0.027828578 0.036284473 0.06125435
000340 de c0 42 3d f8 ce 3c 3c 61 16 2a 3c 65 08 40 3d
       0.047547214 0.011523955 0.010381312 0.046883006
000350 0b 2a 0a 3c a0 0d 80 3c 9b 0d 99 bc 6f 77 3b bc
       0.008432875 0.015631497 -0.018683245 -0.011442049
000360 e3 84 94 bc 9f 26 39 3c ca c4 0c 3d de 75 2f bd
       -0.018129772 0.011300712 0.03436736 -0.042837016
000370 96 b4 49 bd fd 88 5a bb ec 27 0c 3c 3b c8 84 3d
       -0.049244486 -0.0033345812 0.00855444 0.064835034
000380 5f 43 32 bd cb df 1f bd 59 9c 5c bc 59 b9 c8 3c
       -0.04352128 -0.039031785 -0.013465011 0.024502443
000390 e4 46 71 bd 76 18 9c 3c 36 12 b1 bd 39 96 a6 bc
       -0.058905497 0.019054633 -0.086460516 -0.020335304
0003a0 8d 1a 7b 3d 73 a4 f7 bc f1 67 29 3d dd 3a a9 3c
       0.061304618 -0.030229783 0.041358892 0.020657951
0003b0 df ef 20 3c 32 f7 86 3d 01 96 73 bd 6b 99 03 bc
       0.009822815 0.065901175 -0.059469227 -0.008032183
0003c0 97 6c 9c b9 67 c6 5f 3d 77 85 9f 3d f1 78 a4 3d
       -0.00029835544 0.05463257 0.07789128 0.0803088
0003d0 41 d7 8e bd 3b e9 55 bd b6 5d 2b 3d 04 58 6e bd
       -0.0697465 -0.05222438 0.041837417 -0.058189407
0003e0 2e ab d0 bc 9f 60 52 3b f4 26 ab 3c b3 26 2d bd
       -0.02547225 0.0032101048 0.020892598 -0.042273235
0003f0 1b 80 47 3d 74 7a 3d 3c 7a 0d 5b 3d 57 1b 86 3c
       0.048706155 0.01156484 0.05347965 0.016370459

fc2.bias f4 [128]
000000 53 fc 39 bd 6d 19 08 bc 75 6a 94 bb 24 6d 83 3c
       -0.04540665 -0.008306843 -0.004529292 0.016043253
000010 50 91 1b 3d 60 ef 9b bc 09 f4 4e 3d 08 24 71 3d
       0.037980378 -0.019035041 0.0505257 0.058872253
000020 1d d2 16 bd a2 b0 af bb 38 07 55 bd 82 1d 2d 3d
       -0.036821473 -0.0053616324 -0.052008837 0.04226447
000030 87 a6 8d bb cc 68 db bc 2f fe 86 3d e4 d6 38 3d
       -0.00432283 -0.02678337 0.065914504 0.04512681
000040 c1 47 31 3d 9f 62 7c 3d 5b 6e 3e 3d b4 4f 52 3d
       0.04328132 0.06161749 0.046491962 0.051345542
000050 9a 43 3a bd c5 f6 50 3b 83 36 14 bd ae 62 22 3d
       -0.045474626 0.0031885367 -0.0361848 0.03964489
000060 71 31 57 bd e1 bf 01 bd 6b df ed bc ee 18 83 3d
       -0.052537385 -0.03167713 -0.029037198 0.06401239
000070 73 7f 56 3d b9 cb 32 3d 75 1d a6 bc 1d c0 10 3d
       0.05236764 0.043651316 -0.020277718 0.035339464
000080 09 d6 6f 3d 2d 96 f6 bc 34 cb 8b 3d be 3b 22 bd
       0.05855373 -0.030100906 0.06825867 -0.039607756
000090 85 c0 76 bd 06 bf e1 3c a9 db 82 3d 65 97 28 bd
       -0.060242195 0.027556907 0.06389553 -0.041160006
0000a0 f4 f2 14 3a 1d 29 57 bd 34 44 24 3d c2 ec d4 3c
       0.0005681955 -0.052529443 0.040104106 0.025991801
0000b0 ac 5d 28 bd f2 98 ca bc 96 45 21 bd b1 04 56 3b
       -0.041104957 -0.024731133 -0.039373003 0.0032656605
0000c0 02 64 d6 bc a0 91 9b 3c 0d 6b 0c bd 6c 33 73 bd
       -0.026170734 0.018990338 -0.03428178 -0.05937521
0000d0 a3 bd 02 3d f0 06 46 bd 6b 2e 0a 3c 38 94 83 3d
       0.031919133 -0.04834646 0.0084339185 0.06424755
0000e0 5b 28 e8 bc 66 08 7e 3d b8 c3 64 bd 3b 80 0a 3d
       -0.028339555 0.062019728 -0.055850714 0.033813696
0000f0 f6 77 01 bd 90 32 a6 3c 14 e4 f7 3c e2 e8 6d bd
       -0.031608544 0.020287782 0.030260123 -0.058083422
000100 08 b4 ae 3c 4e 9f 37 bd 9f a0 bb bc 66 14 3e bc
       0.02132608 -0.04482966 -0.022903739 -0.011601543
000110 c3 66 9c bc 1f 42 d0 3c 20 98 7f bd c8 39 83 bc
       -0.01909197 0.025422154 -0.062400937 -0.016018763
000120 46 9b 16 bd 4c cf 33 bd ef 6a 8a 3c ad b9 e4 bc
       -0.036769174 -0.043898866 0.016896693 -0.027920568
000130 bd 41 0d bd 6a 40 70 3d 32 5f 18 3c 62 69 47 39
       -0.03448652 0.05865518 0.00930004 0.00019017377
000140 69 ca 6f 3d 6f 6a 31 bc a3 92 08 3d ce 22 7a bd
       0.058542643 -0.010828598 0.03334297 -0.06106835
000150 2d 88 87 bc 1d 4c 30 bd aa 07 49 3c ba dc 07 3d
       -0.016544426 -0.043041337 0.012269894 0.033169486
000160 fb f4 97 3a f0 49 2d 3d c3 a1 c2 bc a5 de b4 bc
       0.0011593396 0.04230684 -0.023758775 -0.022078821
000170 e4 7c e8 bc 04 7f 52 bd 75 81 0e 3d a3 c1 6b 3d
       -0.028379865 -0.051390663 0.03479143 0.057557713
000180 0d e7 95 3b e2 c9 6d 3d 74 9b d1 bc ed d0 1b bc
       0.0045746625 0.05805386 -0.025586821 -0.009510261
000190 8c be f4 3c e4 71 86 3d 44 d6 fe bc 4a c6 50 bd
       0.029876016 0.06564692 -0.03110803 -0.050970353
0001a0 ce 91 2d bd da 08 21 3d 59 df 83 3d d6 84 e6 bc
       -0.04237538 0.039315082 0.064390846 -0.028139513
0001b0 35 05 c5 3c a1 64 7e bd 28 52 bf 3c d8 3c 1f 3d
       0.024050334 -0.062107686 0.023354605 0.038876384
0001c0 fe c6 c9 bc 55 75 b9 bc df 57 03 bd e0 51 c1 3b
       -0.02463102 -0.022638956 -0.032066222 0.005899653
0001d0 f6 07 43 bd c5 e3 54 bd eb 34 c7 3a 2d 6e 23 bc
       -0.047615014 -0.05197503 0.0015198266 -0.009974998
0001e0 5a e6 5e ba 7d 95 f6 bb f1 64 3b 3c 3b 86 3e 3c
       -0.0008502953 -0.0075251446 0.0114376405 0.011628683
0001f0 67 63 31 3d c7 8b 04 bd 32 13 78 3b 58 3d 56 bd
       0.043307688 -0.032359865 0.0037853238 -0.052304596

fc3.weight f4 [64, 128]
000000 59 e3 2f 3d 3b 2a 48 bd c6 90 45 3d 37 b7 6e 3d
       0.042941425 -0.0488684 0.04823377 0.058280196
000010 ef c2 fd 3c 86 bd 72 3b d6 11 e8 3d 12 66 f2 3c
       0.03097674 0.0037039234 0.11331527 0.029589687
000020 6d cc 44 bd ad d1 71 3c 86 08 d9 bc f6 c5 88 3d
       -0.048046518 0.014759463 -0.026493322 0.06678383
000030 28 2d e1 3d a5 ba eb 3d 8e bd d2 bd f2 3e 43 bd
       0.10994941 0.11510209 -0.10290061 -0.04766745
000040 69 ad 4c bd b1 82 06 bd 26 5d fe 3d 4a 58 d9 3c
       -0.049970064 -0.03283948 0.124201104 0.026531357
000050 79 2c d5 3d ed 2e 8a 3d e9 c2 1e 3e 1a ce 2d 3d
       0.10408873 0.06747232 0.1550404 0.042432882
000060 cd f7 c3 bd 34 0a 07 3d 60 0e ab bd 3c 9a 43 bc
       -0.095687486 0.032968715 -0.08352351 -0.011938628
000070 da 18 17 3e e2 b7 c3 3d 56 30 25 3d 15 94 da 3d
       0.14755574 0.09556557 0.0403293 0.10672776
000080 15 5b 8e bd 87 d7 87 3d 97 2f 2e bd 2c 06 b7 bd
       -0.06950966 0.066329055 -0.042525854 -0.08936724
000090 cd 1b 4e 3c c6 61 ab 3d ca 84 ed bd b2 bb 72 3d
       0.01257987 0.08368258 -0.11597593 0.05926103
0000a0 8c 34 a0 3c 27 c4 11 ba b0 94 1f 3e b7 48 c3 3d
       0.019556306 -0.000556054 0.15584064 0.09535354
0000b0 16 de 9e 3d d8 95 22 3d b7 dd 74 bd b9 02 de 3d
       0.07757203 0.039693683 -0.059781756 0.10840363
0000c0 fe 01 dc bc a5 57 95 bd 79 54 68 bd 8b 9c 0f 3e
       -0.026856419 -0.072921075 -0.056721184 0.1402456
0000d0 48 6a 4c 3d d0 73 b5 3d b9 de 82 bd 85 48 9e 3c
       0.049906045 0.0885998 -0.06390137 0.01932169
0000e0 a4 11 80 3d 98 08 14 3e b8 ed f2 bc e8 2b 93 3d
       0.06253365 0.14456403 -0.029654369 0.07186109
0000f0 05 8a f6 3d f5 a3 ce 3c 5c 17 b7 bb 87 d2 77 bd
       0.12038044 0.025224665 -0.0055875015 -0.06050351
000100 c3 6b 58 bd 9e a2 3c bc b8 32 bb bd 41 50 9a 3c
       -0.052837145 -0.01151338 -0.09140533 0.018837096
000110 c0 1d 86 bd 78 93 89 bd 62 74 fb bd 53 5a dc bc
       -0.06548643 -0.067175806 -0.12278058 -0.026898539
000120 f4 45 a9 bc 70 6e 53 3d c3 af ac 3d 0b 2a 59 bd
       -0.020663239 0.051618993 0.084319614 -0.05301861
000130 eb b8 2b 3d 69 e0 42 3d 82 67 24 bd 27 da 4a bd
       0.0419244 0.047577295 -0.040137775 -0.049524453
000140 a2 5e dd 3c fe 31 35 bc ad cf 81 3d b6 94 6e bb
       0.027022664 -0.011059282 0.06338439 -0.0036404557
000150 ce 65 83 3d 05 78 5d 3d 9f ff 18 3d b5 a6 2f 3e
       0.06415902 0.054069538 0.037353154 0.17153437
000160 58 9c c6 38 9c ad 22 3e a1 15 c9 bd a3 43 28 bd
       9.470497e-05 0.15886539 -0.098185785 -0.04108013
000170 c6 1b 4f bd a2 ac 15 bd 70 92 08 3d 26 4e fc 3c
       -0.050563596 -0.03654159 0.03334278 0.030798983
000180 3a f6 3c 3e f2 a6 98 bd 3a 36 96 3c 0a 18 ab 3d
       0.18453303 -0.07453717 0.018336404 0.083541945
000190 65 3c 66 3c ce 21 86 3c 98 8f a9 bd 70 62 af 3d
       0.014052485 0.016373541 -0.082793415 0.08563697
0001a0 65 88 39 bd 88 ad 03 bc 87 89 31 3d ce 01 d9 ba
       -0.04529609 -0.008036979 0.043344047 -0.0016556324
0001b0 45 72 23 bd 03 ee d0 3d 8e ff 47 3a d0 f0 84 3a
       -0.039903898 0.10201647 0.0007629328 0.0010142568
0001c0 26 96 97 bd 10 3a c5 3d 33 de 89 3c 0f bf af bd
       -0.074016854 0.09630215 0.016829586 -0.085813634
0001d0 2a ba 78 3d 4c 8b 69 bc 99 a2 c1 bd a7 62 65 3d
       0.060724415 -0.014254402 -0.09454841 0.056002285
0001e0 e0 b5 47 3d 8e 56 cc bc 77 f5 56 bd 53 64 73 3d
       0.048757434 -0.024943616 -0.052480187 0.05942185
0001f0 f8 40 18 3d 63 12 a9 3d 73 24 3a 3d f6 d7 46 3d
       0.037171334 0.0825546 0.045444917 0.0485458
000200 41 8c 6c 3d df 4e ef 3d b2 4e e1 bd a9 93 5d 3d
       0.057750944 0.11684965 -0.11001338 0.054095898
000210 62 46 80 bc ef 11 4d bb 98 b5 08 3c a6 a1 50 3d
       -0.015658561 -0.0031291207 0.008344077 0.05093541
000220 85 ed 84 bd d2 23 d4 bc a2 ca 42 3c bb b6 86 3d
       -0.06490616 -0.025895987 0.011889132 0.06577822
000230 2a 56 09 3e 13 cf 2c bc 76 db f7 3d 31 3e fb bc
       0.13411775 -0.010547417 0.12102406 -0.030669304
000240 c2 d0 0b 3e 43 05 0d bd e4 da 06 bc a9 ab 83 3d
       0.13653854 -0.034428846 -0.0082308985 0.06429226
000250 ad 58 58 3d 2c 2d c6 bc b0 96 db bd 0f b0 42 bd
       0.052818943 -0.024191462 -0.10722101 -0.047531184
000260 30 29 3e bd b0 19 1b 3d cf 11 ce bb 29 29 e5 3c
       -0.046426 0.037866294 -0.006288744 0.027973728
000270 31 f4 f9 bc 1c ff b7 bc 3d 0f ce 3d d5 b5 5e 3d
       -0.030511947 -0.022460513 0.100615 0.054372627
000280 cb 52 ef 3d d1 e5 9f 3b 47 04 59 3c fc 53 73 3d
       0.116857134 0.004879691 0.013245649 0.059406266
000290 80 2e 54 bd f4 67 e9 bd 12 6e b5 3d 8b d3 61 3c
       -0.05180216 -0.113967806 0.08858885 0.013783346
0002a0 8f 26 3d bd ee 43 6c 3d eb cc 91 bc 11 25 59 3d
       -0.04617935 0.05768197 -0.017797908 0.053013865
0002b0 a6 23 02 3d 35 7e 45 3d 41 6e 8b 3d 67 3b cf 3b
       0.03177228 0.048216064 0.06808139 0.00632422
0002c0 3a 53 a4 3d 90 ea 88 bc fb 5a c2 3b 03 48 11 bc
       0.08023687 -0.01671341 0.005931256 -0.008867267
0002d0 2d 5c cc 3d d7 b5 f6 3d 5d 53 91 bc cd 2b 3d bc
       0.09978519 0.12046402 -0.017739946 -0.011546087
0002e0 ae c8 61 3d 2b 5d 7b 3d 81 af 1d 3d 41 cc 78 3d
       0.055123024 0.06136815 0.03849745 0.060741667
0002f0 50 3e 34 bc 63 b6 ed 3d 1f 1c 8b bc 61 85 9a 3d
       -0.011001185 0.11607053 -0.016981183 0.07544971
000300 5e 65 36 bc 38 0c b0 bd 38 cb 95 3d a0 ea d3 3d
       -0.011132566 -0.085960805 0.073141515 0.103474855
000310 0b 3e 84 3d 2d 67 72 bd ba 7c 26 3d a4 77 99 3d
       0.06457146 -0.059180427 0.040646292 0.07493523
000320 90 f5 8b 3d b8 f5 37 3d 1c 6f 85 3c 57 06 03 3e
       0.06833947 0.04491207 0.016288333 0.12795387
000330 bd b6 51 bd e6 3a 3c 3c 90 4a 09 3c 59 75 ab bd
       -0.051199663 0.011488652 0.0083795935 -0.08371992
000340 cc 6d 8b 3d f9 96 72 3d 14 8e 38 3b 7c 97 8c 3a
       0.068080515 0.05922601 0.0028160857 0.0010726298
000350 51 32 9c bd 08 7e 67 3d 7e 8f d8 3c f1 fc bd bd
       -0.076267846 0.056516677 0.02643561 -0.0927676
000360 63 ee 54 3d dc a7 e6 3c f8 be 1b 3e 75 46 63 3d
       0.051985156 0.028156213 0.15209568 0.055487115
000370 58 bc e0 3c ea 4f 92 bd 04 ed 11 be 09 99 c0 3c
       0.02743356 -0.07144149 -0.1425057 0.023510473
000380 66 44 8e bc 83 40 80 3d cb 0b 9e bd ae ab e8 3c
       -0.0173666 0.06262305 -0.07717093 0.028402176
000390 e2 a0 a7 3d 01 04 48 3d 61 b7 7b bd 62 c6 95 bd
       0.08184983 0.048831943 -0.06145418 -0.07313229
0003a0 25 6a 0b bd 4f 30 04 bc 2c 4b 3c bd 05 aa 85 bb
       -0.034036774 -0.008068158 -0.045970127 -0.004079106
0003b0 58 fd d7 bd e3 0e e5 bc f6 03 c1 bd 88 0b e1 3d
       -0.10546368 -0.0279612 -0.094245836 0.109885275
0003c0 29 94 88 bd de 69 a4 bd c6 95 e5 bc 30 0c 07 3e
       -0.06668884 -0.08028005 -0.02802552 0.13188243
0003d0 9c 23 33 3d a0 0c 9b 3d 04 93 e2 bc ef 79 fe 3d
       0.04373513 0.075707674 -0.027657993 0.12425601
0003e0 8f b5 6f 3d c2 01 c5 3d 75 4a 2f 3c ca 16 13 3d
       0.058522757 0.09619476 0.010698904 0.035910405
0003f0 44 ec 87 3d 3d 55 61 bd c2 a6 6c 3d 83 b4 10 3e
       0.06636861 -0.05501293 0.05777622 0.1413136

fc3.bias f4 [64]
000000 6f fc a7 3d 25 7c 8b 3d 95 2a 88 3c 37 6d 9e bd
       0.08202445 0.06810788 0.016621867 -0.07735675
000010 ce 76 e9 b7 a4 a5 fd 3c 2c 36 79 bd b3 68 8f bd
       -2.7831087e-05 0.030962773 -0.060842678 -0.07002392
000020 05 f5 35 bd 84 61 e6 3c 4f 63 c5 3d 02 60 a3 3d
       -0.044423122 0.028122671 0.09638082 0.079772964
000030 52 98 65 3d 11 9e 1d 3d d6 f1 ef bc 98 d9 98 bd
       0.056053467 0.038480822 -0.029290121 -0.07463378
000040 c1 42 3a 3c d4 aa 05 3d 93 0e 9d 3d 6c 21 98 bd
       0.011368454 0.032633618 0.076687954 -0.0742825
000050 ad 76 b0 3d c0 65 a4 bb f9 0e 91 3d 90 6b 22 3d
       0.086163856 -0.0050170124 0.07082934 0.03965336
000060 66 1f f9 39 bc 0f 40 3a ed ff 22 3d 90 9b de 3c
       0.00047516375 0.00073265634 0.03979485 0.027173787
000070 ac ba 88 3d e2 33 8a 3d bc 8f 2b bd 3f f3 ab bc
       0.0667623 0.06748177 -0.041885123 -0.020990012
000080 4e 3d 49 3d 47 ab 89 3c ff 7e 51 3d 24 80 89 3b
       0.04913073 0.016805304 0.051146504 0.0041961838
000090 76 74 a2 bc 3e 4e 33 3c 83 f9 b2 3c 7b 73 10 3d
       -0.019830924 0.010943947 0.021847492 0.03526638
0000a0 1f ff 4d 3d 15 38 f3 b9 18 d5 89 bd c5 c2 20 3d
       0.05029213 -0.00046390356 -0.067300975 0.039248247
0000b0 fd b9 ea 3c 1f a5 99 bc 55 4c 0a bb 42 b8 5b bd
       0.02865314 -0.018755494 -0.0021102626 -0.05364252
0000c0 6b b2 90 bd 5f 6e 98 3d 69 09 23 bd 57 c6 67 3d
       -0.070652805 0.074429266 -0.039803896 0.056585636
0000d0 74 b1 73 3d 79 b7 cb ba 97 c6 ad 3c 5e 26 23 3d
       0.059495404 -0.001554235 0.02121286 0.03983151
0000e0 6d 0a b8 3d e2 45 ce 3a 1a 07 69 bc fe a7 71 3d
       0.089863636 0.001573738 -0.014222885 0.0589981
0000f0 13 e5 9a bb 3f cd 55 bd dd ea b9 3d e2 74 97 3d
       -0.004727015 -0.05219769 0.09078 0.073953405

fc4.weight f4 [32, 64]
000000 b8 8e 64 3e 69 59 f9 bd 66 1f 91 bd 5d 37 f8 3d
       0.22320068 -0.12175257 -0.07086067 0.12119935
000010 35 82 c1 3c 8f 99 1e 3e 47 9c eb 3c da bb 49 bd
       0.023621658 0.15488265 0.028761042 -0.049251415
000020 6f b5 f6 bc a0 31 dc bc e3 c5 68 3b 5f 1e 68 3d
       -0.030115811 -0.026879132 0.003551834 0.05666959
000030 61 4b e3 bd fc 40 a3 bd 22 33 ae 3d 5c 6f 39 bd
       -0.11098362 -0.07971379 0.085058466 -0.045272216
000040 31 cb 09 be da 3f 03 be c7 39 90 3b 2b 2c 40 3a
       -0.13456418 -0.12817326 0.004401419 0.00073308
000050 a7 9c e5 3d 86 fd 54 bd e7 b2 c9 bd c0 72 9e 3b
       0.1121152 -0.05199959 -0.09848576 0.0048354566
000060 95 5d f3 3b 66 05 7e 3c 85 2e 06 bd 83 25 0d bd
       0.0074269273 0.015504217 -0.03275921 -0.034459602
000070 cc 78 51 bd f7 70 36 3c d2 29 13 3d da 94 cb 3d
       -0.05114059 0.011135331 0.035928555 0.099405006
000080 b6 ef 83 bc 03 c1 67 3e 97 2f c6 bc 96 34 70 3d
       -0.016105514 0.22632222 -0.024192614 0.0586439
000090 5d d6 e7 bd de 6e 9a bd b5 78 05 3c aa f8 13 3d
       -0.113201834 -0.075406775 0.008146455 0.036125816
0000a0 9c ac 5b 3d 6b f1 f2 bd a7 b6 13 bd e3 50 f1 bd
       0.05363141 -0.11862453 -0.036062863 -0.11783006
0000b0 8d 66 f1 3d 2e bb fd bd 93 0f 9d ba 92 3e b4 3c
       0.11787138 -0.12389217 -0.0011982791 0.022002492
0000c0 5f 14 3f 3d 82 0a 64 3d 04 3e d1 3c 4a 9d cf bd
       0.046650287 0.055674084 0.025542267 -0.101374224
0000d0 c5 a9 02 bd f8 b8 4c 3d 7c c6 e1 3d 8d 04 76 3d
       -0.031900186 0.049981087 0.11024186 0.060062934
0000e0 b6 bf 00 bb 2c 63 e9 bd 52 d0 4e bd d3 62 df 3d
       -0.0019645519 -0.11395869 -0.05049164 0.10907521
0000f0 f3 24 4a 3c 7e 0f f5 3d f6 b7 17 be 24 0d e9 3c
       0.012337911 0.119658455 -0.1481627 0.028448649
000100 6c 5f 1e bd 5a e9 4a 3d a2 02 70 bd 8b cc 54 bd
       -0.03866522 0.049538948 -0.05859626 -0.05195288
000110 96 9e 4b bd 31 7f 8f 3c 10 3a 73 3c 88 cf fd bd
       -0.049711786 0.017516704 0.014845386 -0.12393099
000120 02 e5 34 3d 76 01 3e bc 38 f5 8e 3c d5 11 81 3d
       0.04416371 -0.011597028 0.017450914 0.06302229
000130 5f 3c aa bd 45 fb 66 bd fa 67 de 3d 8b 23 71 bd
       -0.08312296 -0.056391973 0.10859676 -0.058871787
000140 6b d2 13 bd c0 6d 9a bd b9 cc 4f bd 9d a9 31 bd
       -0.036089342 -0.075404644 -0.050732348 -0.043374646
000150 07 5f d4 bd fc 1d 3c 3d 99 19 6b 3d ba f2 ee bd
       -0.103696875 0.045927033 0.05739746 -0.1166739
000160 28 6d a7 bc 4b eb ee 3d 17 50 11 bd c1 57 cb bd
       -0.020437792 0.11665972 -0.03547677 -0.09928847
000170 00 c9 16 3b a6 f1 96 3d 33 f3 a4 3d f9 27 f1 3d
       0.002300799 0.073703095 0.08054199 0.11775202
000180 2b 1f 35 bc 9f 95 25 3d 05 fd 96 bd b2 52 fb bd
       -0.011054794 0.040425893 -0.073724784 -0.12271632
000190 9b 79 68 3d 88 40 7f bd 62 ed ac 3d 4a 7c dd bd
       0.056756597 -0.0623174 0.08443715 -0.10814722
0001a0 04 9c ac bd 70 4f 61 3d 12 d0 52 3b 32 1c 93 bc
       -0.08428195 0.055007398 0.0032167477 -0.01795778
0001b0 c2 fe 8b bc c1 ed 39 3d 71 ce b3 3d a4 e3 9d bc
       -0.017089251 0.045392755 0.0877961 -0.019273587
0001c0 01 68 e5 bd 17 0e 80 bd 5a a3 28 bd b4 5d c5 bc
       -0.11201478 -0.062526874 -0.04117141 -0.024092533
0001d0 79 01 cc bd 5c 12 79 bd 0f fe fc 3d b3 f4 f9 bd
       -0.099612184 -0.060808524 0.12353145 -0.12204876
0001e0 5c 2e 9f 3c b2 00 22 bd c8 8c ba bd 1e 47 9a bd
       0.019431286 -0.039551444 -0.09108883 -0.07533096
0001f0 7f 39 47 bd e0 8c 13 3d 41 a1 ff bd 69 62 50 3d
       -0.048638817 0.03602302 -0.124819286 0.0508751
000200 06 e8 ba bd a8 34 98 3d 35 34 56 3d 48 b0 b5 ba
       -0.09126286 0.074319184 0.052295882 -0.001386174
000210 00 7a b8 bd bc 37 ba 3d ff f0 de 3d 58 31 71 bb
       -0.09007645 0.09092662 0.1088581 -0.0036803093
000220 71 ba 68 3e 5b 8a ae bd bd e5 8a be 9c 61 aa 3d
       0.22727372 -0.08522483 -0.271284 0.08319399
000230 34 68 d5 bd 4b 56 46 3d a2 c1 b3 bd 43 7a cc 3c
       -0.10420266 0.04842214 -0.08777167 0.024960643
000240 90 e2 b2 3d aa 5d 21 3d a0 f0 ce bd 41 08 48 bd
       0.087346196 0.039395966 -0.10104489 -0.048835997
000250 04 c9 6f 3c 50 ec d0 bd d9 60 dc 3c e3 15 b1 3d
       0.014635328 -0.10201323 0.02690165 0.08646753
000260 a2 5c cb bc 82 cd 69 3d 56 9a c7 3e 04 cc 8e bd
       -0.024824444 0.057080753 0.38984936 -0.06972507
000270 2b 97 e0 bd f0 16 14 bd eb 08 5e bd 86 e8 eb bc
       -0.10966333 -0.036154687 -0.054207724 -0.0287974
000280 1b aa df bd 41 54 e7 3d cf be bb 3d 02 6f 64 3d
       -0.10921117 0.11295367 0.09167253 0.055769928
000290 e4 36 3a bd 17 98 e3 bd 03 4d 21 bd 18 8e fb 3d
       -0.045462504 -0.11112993 -0.039380085 0.122829616
0002a0 a2 2e ec 3d c5 2b dc bd 8c 1f f8 3b 0d 8c e1 3d
       0.11532332 -0.10750536 0.00757212 0.11013041
0002b0 4b 14 a4 bd 5e ab 33 3e 5b 94 b1 3c 71 b9 20 be
       -0.08011683 0.1754584 0.021677187 -0.1569574
0002c0 61 79 46 3e a5 92 9e 3d 8c 83 47 bd 92 7a 1d be
       0.1938224 0.07742814 -0.048709437 -0.15378788
0002d0 21 63 24 3e 0c 6e fe bc 00 6d 2e 3e d0 8f c2 3d
       0.1605344 -0.031058334 0.17033768 0.09500086
0002e0 d7 59 54 3e d6 8e 1c bc 82 66 8e 3d 4a 4c 9a 39
       0.20737396 -0.009555539 0.069531456 0.0002943001
0002f0 75 63 34 be a0 7d fd 3b 9a 1c fa 3d 4e e4 6d 3c
       -0.17616065 0.007735923 0.122124866 0.014519764
000300 2f 69 2c be e8 15 88 3e bb d2 44 3e 24 7e ba 3c
       -0.16837 0.26579213 0.19221012 0.022765227
000310 56 8e c9 bd 1d a6 ed 3d 1f 59 be bd 61 7d 61 3d
       -0.098416016 0.11603949 -0.09294342 0.05505121
000320 94 96 16 be e7 76 07 be da 03 74 3e 36 f4 44 bb
       -0.14705878 -0.13228951 0.23829594 -0.0030052788
000330 21 a2 d6 bd 0d e1 ec 3d 16 fd 05 3e 6f 11 e2 bd
       -0.104801424 0.115663625 0.13084826 -0.110384814
000340 7a ad ae 3c 0f 6f 8a 3d cb 66 30 bd 61 dd 95 bd
       0.021322954 0.06759464 -0.04306678 -0.07317615
000350 2c b7 52 3d f8 9f e7 3d 58 d6 c6 bd d6 17 f3 b9
       0.051444218 0.113098085 -0.097088516 -0.0004636633
000360 60 fe 6a 3c 6f fe 01 3e 23 c6 54 bd cb 3a 01 3c
       0.014342874 0.12694715 -0.05194677 0.0078875525
000370 5a 83 73 3d 57 f4 51 3e 1c 56 91 3d f0 35 39 bd
       0.05945144 0.20503365 0.07096502 -0.045217454
000380 5a e3 2e 3e 8d 53 30 be 55 f9 aa bd 5a e2 62 3e
       0.17078915 -0.17219372 -0.083483376 0.22156659
000390 13 7d 2a 3d 09 92 a6 3d 61 ae bf 3d 0b b4 26 3e
       0.041623186 0.08133323 0.09359432 0.16279618
0003a0 70 a6 29 bd c8 75 8b 3d 1f e7 10 be c5 dc 9a 3d
       -0.041418493 0.06809574 -0.14150666 0.0756164
0003b0 3c 21 d0 3c da 8a e6 3c 3d f9 90 bd 84 b5 89 bc
       0.025406472 0.028142381 -0.070787884 -0.016810186
0003c0 2d 5b d2 3d ed f3 1f bd 90 c5 30 3e 32 9c 8a bc
       0.10271297 -0.039050985 0.17262864 -0.016920183
0003d0 cd c7 3e be 8f a5 5c be af d1 23 be 38 74 bb bd
       -0.18630905 -0.2154753 -0.15997957 -0.09153026
0003e0 38 c3 1a bc ab 49 9f 3d 68 71 f0 bd 6f 2d 6a 3e
       -0.009445958 0.07777723 -0.117403805 0.22868894
0003f0 a2 e3 5e 3e dd bf 0a bd a4 e1 b3 3c 99 0d be 3d
       0.21766523 -0.03387438 0.02195818 0.09279937

fc4.bias f4 [32]
000000 14 39 3d 3c d9 07 e9 bd ac 33 59 bd 09 ae 4f 3e
       0.011549253 -0.1137845 -0.053027794 0.20281233
000010 04 66 c9 bd 38 d0 e7 3d 5e 5f 8d 3d e8 de 61 bd
       -0.09833911 0.113190114 0.069029555 -0.05514422
000020 11 8e c5 3b 55 fb b7 bd d8 5d 8d 3d 13 17 e0 3c
       0.0060288985 -0.08983485 0.06902665 0.027354753
000030 5d db e5 3c 1e d1 31 3d 05 6d 9f bb 9d 66 ce 3d
       0.028058702 0.04341232 -0.004865291 0.10078166
000040 1c a7 35 bc 38 8f 39 3e 6b a3 ab bd c0 2a e8 3d
       -0.011087205 0.1812104 -0.08380779 0.11336279
000050 e7 b6 2b 3d f8 05 87 3d 8a 94 28 bd 61 27 1c 3e
       0.041922476 0.06592935 -0.041157283 0.15249397
000060 0a 2f ad bd 88 22 51 bc 75 a8 c4 3d ac 19 b9 3d
       -0.084562376 -0.012764581 0.09602443 0.090381
000070 3a fe d4 bd 1e 6a 1d 3e 25 14 8f 3d 0b 25 c1 bd
       -0.10400052 0.15372512 0.06986264 -0.094308935

fc5.weight f4 [10, 32]
000000 ec 4b 1e be e4 b3 12 3e 76 8f 68 3e a6 ff 8d be
       -0.1545865 0.14326435 0.22710976 -0.27734107
000010 00 fe c8 bd aa d8 40 be 39 1d be bc 2c e8 59 be
       -0.09814072 -0.18832651 -0.023207294 -0.21279973
000020 8a fe f9 3e 14 13 07 3e d8 f2 c9 3c a1 e6 14 3d
       0.4882701 0.13190871 0.02465193 0.036352757
000030 e2 12 02 3f 77 ad 0c bd 0b 21 7f 3e 3a 16 c2 be
       0.5081006 -0.034345116 0.24914949 -0.37907583
000040 a9 4a d1 bc 8b 92 42 bd 88 99 de bd 17 f4 0c 3e
       -0.025548296 -0.047503036 -0.108691275 0.13764988
000050 f3 56 74 be b0 16 c7 bd 5a d0 cc 3d 7b 11 5b 3d
       -0.23861293 -0.09721124 0.100006774 0.053483468
000060 95 5a 48 3e 4b 13 61 3e b9 55 87 be bb 7e 85 be
       0.19565804 0.21980016 -0.2643259 -0.2607325
000070 a3 d4 93 bc f7 15 4a be 38 d1 8b be 69 72 24 bd
       -0.018045729 -0.19734941 -0.2730806 -0.040148173
000080 3d 69 02 3e c0 b2 cf bd ec dc 19 bc ec d9 de be
       0.12735458 -0.10141516 -0.009391051 -0.43525636
000090 58 78 71 3c 28 59 dc 3c 93 19 c1 3e dc 26 4b 3c
       0.014738165 0.026897982 0.37714824 0.0123994015
0000a0 19 e4 7e be e3 73 0c be 1d 13 6c 3e f0 1c a4 bd
       -0.248917 -0.13716082 0.23054166 -0.08013332
0000b0 32 1b 80 be ff 9f cf bd cf 2a 65 be b2 96 9c 3e
       -0.25020748 -0.10137939 -0.22379611 0.3058372
0000c0 0b 8c 00 3e 6f 48 c4 be 41 ac 0c bd 75 57 22 be
       0.12553422 -0.38336512 -0.03434396 -0.15853675
0000d0 0e bd 92 3e 24 0f b0 be 8b 7f a9 3a 6c af b7 be
       0.28659862 -0.3438655 0.0012931688 -0.35876024
0000e0 d7 1f 1c be db 51 fe 3d ee fc 05 bc 77 f5 8e 3d
       -0.15246521 0.124179564 -0.008177979 0.069804125
0000f0 da 72 9b 3e 20 de c7 3e 8f 83 82 3e 18 61 b1 bd
       0.30361062 0.39036655 0.25490996 -0.08661097
000100 9f c0 33 be 5d f6 18 bd 6e 0c 08 3d c2 2f 63 3e
       -0.17553948 -0.037344325 0.03321498 0.22186187
000110 f8 36 b4 3d 0f a1 7e 3c 20 31 8b be bd bf 24 be
       0.08799547 0.015541329 -0.27185917 -0.16088767
000120 41 ee d8 3e 20 24 ec bc b0 b9 58 be 06 5c 10 be
       0.42369273 -0.02882582 -0.21164584 -0.14097604
000130 69 e8 bf bd 58 2f c2 bd 57 36 2a be f1 10 97 be
       -0.093705006 -0.09481686 -0.16622292 -0.29505113
000140 a4 e9 ff bd 11 90 21 be 5c 90 e0 bd 4d 30 61 bd
       -0.12495735 -0.15777613 -0.10965034 -0.054977704
000150 17 97 84 be 88 5a 1b 3f f1 47 51 be bc af 49 3d
       -0.25896522 0.60685015 -0.204376 0.04923986
000160 fd 4c b7 3e 24 6d 30 3d d7 b3 1a 3e d4 f6 0d bc
       0.35800925 0.043072835 0.15107666 -0.008664805
000170 82 12 dd bd f9 f3 30 be a6 23 9a 3d 94 99 04 be
       -0.10794546 -0.17280568 0.07526331 -0.1294921
000180 c8 1b fc 3d 5f f4 16 3e 15 99 c0 be c5 76 95 3e
       0.12309986 0.14741658 -0.37616792 0.29192176
000190 91 c8 c9 bd d9 18 9e 3e c4 1b 8d bd ef 1f 16 3e
       -0.09852708 0.30878332 -0.068900615 0.14660619
0001a0 c7 b1 68 be 91 16 2a 3e a7 d7 4f 3d e3 c8 02 be
       -0.22724067 0.16610171 0.05074277 -0.12771945
0001b0 09 29 cb be 4e 96 bc 3d b9 42 f5 3d 5e 2b 86 be
       -0.39679745 0.09208356 0.11975617 -0.26204962
0001c0 06 cf ed 3d 6d 72 96 3e 7d 92 75 bd 91 4c f0 bc
       0.11611752 0.29384175 -0.059954155 -0.029333385
0001d0 f0 65 d1 bc 5a 79 65 3e a4 5f 03 3e 91 eb 58 bc
       -0.025561303 0.22409573 0.12829453 -0.013239757
0001e0 2a 63 c7 3c 5f c4 1b be 27 93 c5 3e a1 a6 8d 3e
       0.024339277 -0.15211628 0.3858883 0.2766619
0001f0 e3 e5 57 be 8c 70 99 be d0 66 13 3d 65 86 c7 3b
       -0.21083789 -0.2996868 0.03598672 0.006089019
000200 a9 13 2f 3d dd 05 aa bd 5f f9 11 3f b4 f1 bc bd
       0.04274336 -0.083018996 0.57021135 -0.09225789
000210 de 9a dc 3d dd 3c bb 3e 41 5e 42 3d f0 aa 8a 3c
       0.10771726 0.36569872 0.04745317 0.016927212
000220 38 78 37 be 7d 51 dd bd a8 77 15 be 2a 58 84 be
       -0.17916954 -0.10806558 -0.14596426 -0.25848514
000230 07 82 8d be 60 21 52 3e 70 39 8a be f6 10 5d be
       -0.27638265 0.20520544 -0.26996946 -0.21588501
000240 0f 6d 10 be 2b 78 f1 bd fc f2 af bd d8 19 23 bd
       -0.14104103 -0.11790498 -0.085912675 -0.03981957
000250 bf 4c 95 be 55 42 87 3e e7 b9 22 be 5c 89 21 be
       -0.29160115 0.26417795 -0.15891229 -0.15775055
000260 8d 8d f1 bd 74 b0 ae bc e4 bf ac 3e a7 b1 99 3e
       -0.11794577 -0.021324374 0.3374015 0.3001835
000270 58 90 f8 3d 2c e1 2b be 9b 85 9c be d2 d9 32 be
       0.121369064 -0.16785115 -0.30570683 -0.17465904
000280 85 a7 90 3e b1 ed 36 3d 77 cc 98 3d c4 66 86 be
       0.28252807 0.044660274 0.074608736 -0.2625028
000290 25 22 21 be 5f c1 79 be 75 f4 d4 3d 42 3f 1d bd
       -0.15735681 -0.24390171 0.10398189 -0.038390405
0002a0 b3 d9 ed 3e ab 78 31 bd 1e bc 0b be 55 dd 7f 3e
       0.46455154 -0.04332797 -0.1364598 0.24986775
0002b0 3b 3f dd 3e ce 5e 33 bd 7b d5 11 bd 5c a0 ae be
       0.43212304 -0.043791585 -0.03560398 -0.3410672
0002c0 28 56 f0 3d a9 a4 d9 be 40 c0 24 be ab 8b 38 bd
       0.11735183 -0.42508438 -0.16088963 -0.045055073
0002d0 ed 99 86 3d db e6 c9 be 81 37 40 be 61 93 4f be
       0.06572328 -0.3943394 -0.18771173 -0.20271064
0002e0 6c e4 1f bd 89 0a f6 3d 83 d3 62 be 15 6a b9 bd
       -0.0390362 0.12013728 -0.22150998 -0.09053437
0002f0 59 7d 3a bd 37 df 8e 3e 28 64 8f 3d ec 7b aa 3d
       -0.045529697 0.27904674 0.07001525 0.083244175
000300 51 9b 25 3d 2f 03 84 3c 6e 58 70 bd 58 f6 98 be
       0.040431324 0.0161148 -0.058678083 -0.29875445
000310 2e 35 b9 3d 64 42 b6 bd b8 ae 96 be 40 f3 2b 3e
       0.09043346 -0.08899382 -0.29430175 0.16792011
000320 e4 80 a2 be 1d 5a f1 3d f7 08 05 3e ce ee ac 3d
       -0.3173896 0.11784766 0.12991701 0.08443986
000330 d1 ab 7f 3e 09 49 96 bc 91 15 02 3e 9b 60 9a 3e
       0.24967887 -0.018345373 0.1270354 0.3015183
000340 3e e2 27 be 7f 80 c6 3e ec 5a 15 3e 39 72 b5 3d
       -0.16394898 0.3876991 0.14585465 0.08859677
000350 32 59 5f bd 9d 5a 38 be 29 7b 94 3d e5 bd 44 bc
       -0.054528423 -0.18003316 0.072500534 -0.012008165
000360 94 6b ad bc a3 39 39 3e f8 8c 76 be 8f e5 7d 3e
       -0.021169461 0.18088393 -0.24077213 0.24794601
000370 bd 01 3d be 89 f4 a6 3e 40 1f e5 bc f2 49 91 bb
       -0.18457694 0.3260844 -0.027969003 -0.004433864
000380 b1 a7 c2 bc c8 a5 32 be 46 d9 22 be 4c 73 60 3d
       -0.023761602 -0.17446053 -0.15903196 0.054797456
000390 fd ce cc bd 84 ef 60 3e d4 3c 3f 3e 7f c0 41 be
       -0.100004174 0.21966368 0.18675548 -0.18921088
0003a0 d1 e3 b9 3d 1c cb 23 bb 06 4a 08 be 0c ad 65 bd
       0.09076656 -0.0024992889 -0.13309488 -0.056073233
0003b0 8d cb 65 be 22 49 28 bc 6c 9a 40 3e 5e 9a b4 3e
       -0.2244093 -0.0102713425 0.18808907 0.35274023
0003c0 30 f6 7f bd 6b cb 97 bd ab 57 48 3e f4 87 33 be
       -0.062490642 -0.07411846 0.19564693 -0.17532331
0003d0 c8 95 97 3e 83 0a 01 3e cd a3 09 3e e3 83 a1 3e
       0.29606462 0.12601666 0.13441391 0.31545934
0003e0 07 11 3d be 2f e0 86 be 14 c2 8f be d1 58 a1 be
       -0.18463527 -0.26342914 -0.28077757 -0.31513074
0003f0 53 bf b9 3c c0 b3 90 be 11 73 07 3f 27 cf 1d be
       0.022674238 -0.28262138 0.5290995 -0.15411054

fc5.bias f4 [10]
000000 3c 77 27 bd e8 fe fd bd e8 f9 02 3e ea 31 0a be
       -0.040885195 -0.12402135 0.12790644 -0.13495603
000010 41 69 af bc 89 2b 75 3d fd 39 59 be e4 11 54 3d
       -0.021412494 0.05985597 -0.21213527 0.051774874
000020 9c f4 cf bd a9 9b 7a 3d
       -0.101540774 0.061183605
